<?xml version="1.0"?>
<net name="torch-jit-export" version="11">
	<layers>
		<layer id="0" name="input" type="Parameter" version="opset1">
			<data shape="?,3,112,112" element_type="f32" />
			<output>
				<port id="0" precision="FP32" names="input">
					<dim>-1</dim>
					<dim>3</dim>
					<dim>112</dim>
					<dim>112</dim>
				</port>
			</output>
		</layer>
		<layer id="1" name="ConvBnFusion_W_conv_stem.weight" type="Const" version="opset1">
			<data element_type="f32" shape="16, 3, 3, 3" offset="0" size="1728" />
			<output>
				<port id="0" precision="FP32" names="ConvBnFusion_W_conv_stem.weight">
					<dim>16</dim>
					<dim>3</dim>
					<dim>3</dim>
					<dim>3</dim>
				</port>
			</output>
		</layer>
		<layer id="2" name="Conv_0/WithoutBiases" type="Convolution" version="opset1">
			<data strides="2, 2" dilations="1, 1" pads_begin="1, 1" pads_end="1, 1" auto_pad="explicit" />
			<input>
				<port id="0" precision="FP32">
					<dim>-1</dim>
					<dim>3</dim>
					<dim>112</dim>
					<dim>112</dim>
				</port>
				<port id="1" precision="FP32">
					<dim>16</dim>
					<dim>3</dim>
					<dim>3</dim>
					<dim>3</dim>
				</port>
			</input>
			<output>
				<port id="2" precision="FP32">
					<dim>-1</dim>
					<dim>16</dim>
					<dim>56</dim>
					<dim>56</dim>
				</port>
			</output>
		</layer>
		<layer id="3" name="Reshape_35550" type="Const" version="opset1">
			<data element_type="f32" shape="1, 16, 1, 1" offset="1728" size="64" />
			<output>
				<port id="0" precision="FP32">
					<dim>1</dim>
					<dim>16</dim>
					<dim>1</dim>
					<dim>1</dim>
				</port>
			</output>
		</layer>
		<layer id="4" name="Conv_0" type="Add" version="opset1">
			<data auto_broadcast="numpy" />
			<input>
				<port id="0" precision="FP32">
					<dim>-1</dim>
					<dim>16</dim>
					<dim>56</dim>
					<dim>56</dim>
				</port>
				<port id="1" precision="FP32">
					<dim>1</dim>
					<dim>16</dim>
					<dim>1</dim>
					<dim>1</dim>
				</port>
			</input>
			<output>
				<port id="2" precision="FP32" names="282">
					<dim>-1</dim>
					<dim>16</dim>
					<dim>56</dim>
					<dim>56</dim>
				</port>
			</output>
		</layer>
		<layer id="5" name="Mul_9" type="HSwish" version="opset4">
			<input>
				<port id="0" precision="FP32">
					<dim>-1</dim>
					<dim>16</dim>
					<dim>56</dim>
					<dim>56</dim>
				</port>
			</input>
			<output>
				<port id="1" precision="FP32" names="290">
					<dim>-1</dim>
					<dim>16</dim>
					<dim>56</dim>
					<dim>56</dim>
				</port>
			</output>
		</layer>
		<layer id="6" name="Reshape_35564" type="Const" version="opset1">
			<data element_type="f32" shape="16, 1, 1, 3, 3" offset="1792" size="576" />
			<output>
				<port id="0" precision="FP32">
					<dim>16</dim>
					<dim>1</dim>
					<dim>1</dim>
					<dim>3</dim>
					<dim>3</dim>
				</port>
			</output>
		</layer>
		<layer id="7" name="fused Conv_10/WithoutBiases" type="GroupConvolution" version="opset1">
			<data strides="2, 2" pads_begin="1, 1" pads_end="1, 1" dilations="1, 1" auto_pad="explicit" />
			<input>
				<port id="0" precision="FP32">
					<dim>-1</dim>
					<dim>16</dim>
					<dim>56</dim>
					<dim>56</dim>
				</port>
				<port id="1" precision="FP32">
					<dim>16</dim>
					<dim>1</dim>
					<dim>1</dim>
					<dim>3</dim>
					<dim>3</dim>
				</port>
			</input>
			<output>
				<port id="2" precision="FP32">
					<dim>-1</dim>
					<dim>16</dim>
					<dim>28</dim>
					<dim>28</dim>
				</port>
			</output>
		</layer>
		<layer id="8" name="Reshape_35614" type="Const" version="opset1">
			<data element_type="f32" shape="1, 16, 1, 1" offset="2368" size="64" />
			<output>
				<port id="0" precision="FP32">
					<dim>1</dim>
					<dim>16</dim>
					<dim>1</dim>
					<dim>1</dim>
				</port>
			</output>
		</layer>
		<layer id="9" name="Add_35615" type="Add" version="opset1">
			<data auto_broadcast="numpy" />
			<input>
				<port id="0" precision="FP32">
					<dim>-1</dim>
					<dim>16</dim>
					<dim>28</dim>
					<dim>28</dim>
				</port>
				<port id="1" precision="FP32">
					<dim>1</dim>
					<dim>16</dim>
					<dim>1</dim>
					<dim>1</dim>
				</port>
			</input>
			<output>
				<port id="2" precision="FP32">
					<dim>-1</dim>
					<dim>16</dim>
					<dim>28</dim>
					<dim>28</dim>
				</port>
			</output>
		</layer>
		<layer id="10" name="fused Conv_10" type="ReLU" version="opset1">
			<input>
				<port id="0" precision="FP32">
					<dim>-1</dim>
					<dim>16</dim>
					<dim>28</dim>
					<dim>28</dim>
				</port>
			</input>
			<output>
				<port id="1" precision="FP32" names="293">
					<dim>-1</dim>
					<dim>16</dim>
					<dim>28</dim>
					<dim>28</dim>
				</port>
			</output>
		</layer>
		<layer id="11" name="Range_35623" type="Const" version="opset1">
			<data element_type="i64" shape="2" offset="2432" size="16" />
			<output>
				<port id="0" precision="I64">
					<dim>2</dim>
				</port>
			</output>
		</layer>
		<layer id="12" name="GlobalAveragePool_13" type="ReduceMean" version="opset1">
			<data keep_dims="true" />
			<input>
				<port id="0" precision="FP32">
					<dim>-1</dim>
					<dim>16</dim>
					<dim>28</dim>
					<dim>28</dim>
				</port>
				<port id="1" precision="I64">
					<dim>2</dim>
				</port>
			</input>
			<output>
				<port id="2" precision="FP32" names="294">
					<dim>-1</dim>
					<dim>16</dim>
					<dim>1</dim>
					<dim>1</dim>
				</port>
			</output>
		</layer>
		<layer id="13" name="blocks.0.0.se.conv_reduce.weight" type="Const" version="opset1">
			<data element_type="f32" shape="8, 16, 1, 1" offset="2448" size="512" />
			<output>
				<port id="0" precision="FP32" names="blocks.0.0.se.conv_reduce.weight">
					<dim>8</dim>
					<dim>16</dim>
					<dim>1</dim>
					<dim>1</dim>
				</port>
			</output>
		</layer>
		<layer id="14" name="fused Conv_14/WithoutBiases" type="Convolution" version="opset1">
			<data strides="1, 1" dilations="1, 1" pads_begin="0, 0" pads_end="0, 0" auto_pad="explicit" />
			<input>
				<port id="0" precision="FP32">
					<dim>-1</dim>
					<dim>16</dim>
					<dim>1</dim>
					<dim>1</dim>
				</port>
				<port id="1" precision="FP32">
					<dim>8</dim>
					<dim>16</dim>
					<dim>1</dim>
					<dim>1</dim>
				</port>
			</input>
			<output>
				<port id="2" precision="FP32">
					<dim>-1</dim>
					<dim>8</dim>
					<dim>1</dim>
					<dim>1</dim>
				</port>
			</output>
		</layer>
		<layer id="15" name="Reshape_35638" type="Const" version="opset1">
			<data element_type="f32" shape="1, 8, 1, 1" offset="2960" size="32" />
			<output>
				<port id="0" precision="FP32">
					<dim>1</dim>
					<dim>8</dim>
					<dim>1</dim>
					<dim>1</dim>
				</port>
			</output>
		</layer>
		<layer id="16" name="Add_35639" type="Add" version="opset1">
			<data auto_broadcast="numpy" />
			<input>
				<port id="0" precision="FP32">
					<dim>-1</dim>
					<dim>8</dim>
					<dim>1</dim>
					<dim>1</dim>
				</port>
				<port id="1" precision="FP32">
					<dim>1</dim>
					<dim>8</dim>
					<dim>1</dim>
					<dim>1</dim>
				</port>
			</input>
			<output>
				<port id="2" precision="FP32">
					<dim>-1</dim>
					<dim>8</dim>
					<dim>1</dim>
					<dim>1</dim>
				</port>
			</output>
		</layer>
		<layer id="17" name="fused Conv_14" type="ReLU" version="opset1">
			<input>
				<port id="0" precision="FP32">
					<dim>-1</dim>
					<dim>8</dim>
					<dim>1</dim>
					<dim>1</dim>
				</port>
			</input>
			<output>
				<port id="1" precision="FP32" names="296">
					<dim>-1</dim>
					<dim>8</dim>
					<dim>1</dim>
					<dim>1</dim>
				</port>
			</output>
		</layer>
		<layer id="18" name="blocks.0.0.se.conv_expand.weight" type="Const" version="opset1">
			<data element_type="f32" shape="16, 8, 1, 1" offset="2992" size="512" />
			<output>
				<port id="0" precision="FP32" names="blocks.0.0.se.conv_expand.weight">
					<dim>16</dim>
					<dim>8</dim>
					<dim>1</dim>
					<dim>1</dim>
				</port>
			</output>
		</layer>
		<layer id="19" name="Conv_16/WithoutBiases" type="Convolution" version="opset1">
			<data strides="1, 1" dilations="1, 1" pads_begin="0, 0" pads_end="0, 0" auto_pad="explicit" />
			<input>
				<port id="0" precision="FP32">
					<dim>-1</dim>
					<dim>8</dim>
					<dim>1</dim>
					<dim>1</dim>
				</port>
				<port id="1" precision="FP32">
					<dim>16</dim>
					<dim>8</dim>
					<dim>1</dim>
					<dim>1</dim>
				</port>
			</input>
			<output>
				<port id="2" precision="FP32">
					<dim>-1</dim>
					<dim>16</dim>
					<dim>1</dim>
					<dim>1</dim>
				</port>
			</output>
		</layer>
		<layer id="20" name="Reshape_35652" type="Const" version="opset1">
			<data element_type="f32" shape="1, 16, 1, 1" offset="3504" size="64" />
			<output>
				<port id="0" precision="FP32">
					<dim>1</dim>
					<dim>16</dim>
					<dim>1</dim>
					<dim>1</dim>
				</port>
			</output>
		</layer>
		<layer id="21" name="Conv_16" type="Add" version="opset1">
			<data auto_broadcast="numpy" />
			<input>
				<port id="0" precision="FP32">
					<dim>-1</dim>
					<dim>16</dim>
					<dim>1</dim>
					<dim>1</dim>
				</port>
				<port id="1" precision="FP32">
					<dim>1</dim>
					<dim>16</dim>
					<dim>1</dim>
					<dim>1</dim>
				</port>
			</input>
			<output>
				<port id="2" precision="FP32" names="297">
					<dim>-1</dim>
					<dim>16</dim>
					<dim>1</dim>
					<dim>1</dim>
				</port>
			</output>
		</layer>
		<layer id="22" name="Div_23" type="HSigmoid" version="opset5">
			<input>
				<port id="0" precision="FP32">
					<dim>-1</dim>
					<dim>16</dim>
					<dim>1</dim>
					<dim>1</dim>
				</port>
			</input>
			<output>
				<port id="1" precision="FP32" names="304">
					<dim>-1</dim>
					<dim>16</dim>
					<dim>1</dim>
					<dim>1</dim>
				</port>
			</output>
		</layer>
		<layer id="23" name="Mul_24" type="Multiply" version="opset1">
			<data auto_broadcast="numpy" />
			<input>
				<port id="0" precision="FP32">
					<dim>-1</dim>
					<dim>16</dim>
					<dim>28</dim>
					<dim>28</dim>
				</port>
				<port id="1" precision="FP32">
					<dim>-1</dim>
					<dim>16</dim>
					<dim>1</dim>
					<dim>1</dim>
				</port>
			</input>
			<output>
				<port id="2" precision="FP32" names="305">
					<dim>-1</dim>
					<dim>16</dim>
					<dim>28</dim>
					<dim>28</dim>
				</port>
			</output>
		</layer>
		<layer id="24" name="ConvBnFusion_W_blocks.0.0.conv_pw.weight" type="Const" version="opset1">
			<data element_type="f32" shape="16, 16, 1, 1" offset="3568" size="1024" />
			<output>
				<port id="0" precision="FP32" names="ConvBnFusion_W_blocks.0.0.conv_pw.weight">
					<dim>16</dim>
					<dim>16</dim>
					<dim>1</dim>
					<dim>1</dim>
				</port>
			</output>
		</layer>
		<layer id="25" name="Conv_25/WithoutBiases" type="Convolution" version="opset1">
			<data strides="1, 1" dilations="1, 1" pads_begin="0, 0" pads_end="0, 0" auto_pad="explicit" />
			<input>
				<port id="0" precision="FP32">
					<dim>-1</dim>
					<dim>16</dim>
					<dim>28</dim>
					<dim>28</dim>
				</port>
				<port id="1" precision="FP32">
					<dim>16</dim>
					<dim>16</dim>
					<dim>1</dim>
					<dim>1</dim>
				</port>
			</input>
			<output>
				<port id="2" precision="FP32">
					<dim>-1</dim>
					<dim>16</dim>
					<dim>28</dim>
					<dim>28</dim>
				</port>
			</output>
		</layer>
		<layer id="26" name="Reshape_35670" type="Const" version="opset1">
			<data element_type="f32" shape="1, 16, 1, 1" offset="4592" size="64" />
			<output>
				<port id="0" precision="FP32">
					<dim>1</dim>
					<dim>16</dim>
					<dim>1</dim>
					<dim>1</dim>
				</port>
			</output>
		</layer>
		<layer id="27" name="Conv_25" type="Add" version="opset1">
			<data auto_broadcast="numpy" />
			<input>
				<port id="0" precision="FP32">
					<dim>-1</dim>
					<dim>16</dim>
					<dim>28</dim>
					<dim>28</dim>
				</port>
				<port id="1" precision="FP32">
					<dim>1</dim>
					<dim>16</dim>
					<dim>1</dim>
					<dim>1</dim>
				</port>
			</input>
			<output>
				<port id="2" precision="FP32" names="307">
					<dim>-1</dim>
					<dim>16</dim>
					<dim>28</dim>
					<dim>28</dim>
				</port>
			</output>
		</layer>
		<layer id="28" name="ConvBnFusion_W_blocks.1.0.conv_pw.weight" type="Const" version="opset1">
			<data element_type="f32" shape="72, 16, 1, 1" offset="4656" size="4608" />
			<output>
				<port id="0" precision="FP32" names="ConvBnFusion_W_blocks.1.0.conv_pw.weight">
					<dim>72</dim>
					<dim>16</dim>
					<dim>1</dim>
					<dim>1</dim>
				</port>
			</output>
		</layer>
		<layer id="29" name="fused Conv_27/WithoutBiases" type="Convolution" version="opset1">
			<data strides="1, 1" dilations="1, 1" pads_begin="0, 0" pads_end="0, 0" auto_pad="explicit" />
			<input>
				<port id="0" precision="FP32">
					<dim>-1</dim>
					<dim>16</dim>
					<dim>28</dim>
					<dim>28</dim>
				</port>
				<port id="1" precision="FP32">
					<dim>72</dim>
					<dim>16</dim>
					<dim>1</dim>
					<dim>1</dim>
				</port>
			</input>
			<output>
				<port id="2" precision="FP32">
					<dim>-1</dim>
					<dim>72</dim>
					<dim>28</dim>
					<dim>28</dim>
				</port>
			</output>
		</layer>
		<layer id="30" name="Reshape_35683" type="Const" version="opset1">
			<data element_type="f32" shape="1, 72, 1, 1" offset="9264" size="288" />
			<output>
				<port id="0" precision="FP32">
					<dim>1</dim>
					<dim>72</dim>
					<dim>1</dim>
					<dim>1</dim>
				</port>
			</output>
		</layer>
		<layer id="31" name="Add_35684" type="Add" version="opset1">
			<data auto_broadcast="numpy" />
			<input>
				<port id="0" precision="FP32">
					<dim>-1</dim>
					<dim>72</dim>
					<dim>28</dim>
					<dim>28</dim>
				</port>
				<port id="1" precision="FP32">
					<dim>1</dim>
					<dim>72</dim>
					<dim>1</dim>
					<dim>1</dim>
				</port>
			</input>
			<output>
				<port id="2" precision="FP32">
					<dim>-1</dim>
					<dim>72</dim>
					<dim>28</dim>
					<dim>28</dim>
				</port>
			</output>
		</layer>
		<layer id="32" name="fused Conv_27" type="ReLU" version="opset1">
			<input>
				<port id="0" precision="FP32">
					<dim>-1</dim>
					<dim>72</dim>
					<dim>28</dim>
					<dim>28</dim>
				</port>
			</input>
			<output>
				<port id="1" precision="FP32" names="310">
					<dim>-1</dim>
					<dim>72</dim>
					<dim>28</dim>
					<dim>28</dim>
				</port>
			</output>
		</layer>
		<layer id="33" name="Reshape_35693" type="Const" version="opset1">
			<data element_type="f32" shape="72, 1, 1, 3, 3" offset="9552" size="2592" />
			<output>
				<port id="0" precision="FP32">
					<dim>72</dim>
					<dim>1</dim>
					<dim>1</dim>
					<dim>3</dim>
					<dim>3</dim>
				</port>
			</output>
		</layer>
		<layer id="34" name="fused Conv_30/WithoutBiases" type="GroupConvolution" version="opset1">
			<data strides="2, 2" pads_begin="1, 1" pads_end="1, 1" dilations="1, 1" auto_pad="explicit" />
			<input>
				<port id="0" precision="FP32">
					<dim>-1</dim>
					<dim>72</dim>
					<dim>28</dim>
					<dim>28</dim>
				</port>
				<port id="1" precision="FP32">
					<dim>72</dim>
					<dim>1</dim>
					<dim>1</dim>
					<dim>3</dim>
					<dim>3</dim>
				</port>
			</input>
			<output>
				<port id="2" precision="FP32">
					<dim>-1</dim>
					<dim>72</dim>
					<dim>14</dim>
					<dim>14</dim>
				</port>
			</output>
		</layer>
		<layer id="35" name="Reshape_35743" type="Const" version="opset1">
			<data element_type="f32" shape="1, 72, 1, 1" offset="12144" size="288" />
			<output>
				<port id="0" precision="FP32">
					<dim>1</dim>
					<dim>72</dim>
					<dim>1</dim>
					<dim>1</dim>
				</port>
			</output>
		</layer>
		<layer id="36" name="Add_35744" type="Add" version="opset1">
			<data auto_broadcast="numpy" />
			<input>
				<port id="0" precision="FP32">
					<dim>-1</dim>
					<dim>72</dim>
					<dim>14</dim>
					<dim>14</dim>
				</port>
				<port id="1" precision="FP32">
					<dim>1</dim>
					<dim>72</dim>
					<dim>1</dim>
					<dim>1</dim>
				</port>
			</input>
			<output>
				<port id="2" precision="FP32">
					<dim>-1</dim>
					<dim>72</dim>
					<dim>14</dim>
					<dim>14</dim>
				</port>
			</output>
		</layer>
		<layer id="37" name="fused Conv_30" type="ReLU" version="opset1">
			<input>
				<port id="0" precision="FP32">
					<dim>-1</dim>
					<dim>72</dim>
					<dim>14</dim>
					<dim>14</dim>
				</port>
			</input>
			<output>
				<port id="1" precision="FP32" names="313">
					<dim>-1</dim>
					<dim>72</dim>
					<dim>14</dim>
					<dim>14</dim>
				</port>
			</output>
		</layer>
		<layer id="38" name="ConvBnFusion_W_blocks.1.0.conv_pwl.weight" type="Const" version="opset1">
			<data element_type="f32" shape="24, 72, 1, 1" offset="12432" size="6912" />
			<output>
				<port id="0" precision="FP32" names="ConvBnFusion_W_blocks.1.0.conv_pwl.weight">
					<dim>24</dim>
					<dim>72</dim>
					<dim>1</dim>
					<dim>1</dim>
				</port>
			</output>
		</layer>
		<layer id="39" name="Conv_33/WithoutBiases" type="Convolution" version="opset1">
			<data strides="1, 1" dilations="1, 1" pads_begin="0, 0" pads_end="0, 0" auto_pad="explicit" />
			<input>
				<port id="0" precision="FP32">
					<dim>-1</dim>
					<dim>72</dim>
					<dim>14</dim>
					<dim>14</dim>
				</port>
				<port id="1" precision="FP32">
					<dim>24</dim>
					<dim>72</dim>
					<dim>1</dim>
					<dim>1</dim>
				</port>
			</input>
			<output>
				<port id="2" precision="FP32">
					<dim>-1</dim>
					<dim>24</dim>
					<dim>14</dim>
					<dim>14</dim>
				</port>
			</output>
		</layer>
		<layer id="40" name="Reshape_35757" type="Const" version="opset1">
			<data element_type="f32" shape="1, 24, 1, 1" offset="19344" size="96" />
			<output>
				<port id="0" precision="FP32">
					<dim>1</dim>
					<dim>24</dim>
					<dim>1</dim>
					<dim>1</dim>
				</port>
			</output>
		</layer>
		<layer id="41" name="Conv_33" type="Add" version="opset1">
			<data auto_broadcast="numpy" />
			<input>
				<port id="0" precision="FP32">
					<dim>-1</dim>
					<dim>24</dim>
					<dim>14</dim>
					<dim>14</dim>
				</port>
				<port id="1" precision="FP32">
					<dim>1</dim>
					<dim>24</dim>
					<dim>1</dim>
					<dim>1</dim>
				</port>
			</input>
			<output>
				<port id="2" precision="FP32" names="315">
					<dim>-1</dim>
					<dim>24</dim>
					<dim>14</dim>
					<dim>14</dim>
				</port>
			</output>
		</layer>
		<layer id="42" name="ConvBnFusion_W_blocks.1.1.conv_pw.weight" type="Const" version="opset1">
			<data element_type="f32" shape="88, 24, 1, 1" offset="19440" size="8448" />
			<output>
				<port id="0" precision="FP32" names="ConvBnFusion_W_blocks.1.1.conv_pw.weight">
					<dim>88</dim>
					<dim>24</dim>
					<dim>1</dim>
					<dim>1</dim>
				</port>
			</output>
		</layer>
		<layer id="43" name="fused Conv_35/WithoutBiases" type="Convolution" version="opset1">
			<data strides="1, 1" dilations="1, 1" pads_begin="0, 0" pads_end="0, 0" auto_pad="explicit" />
			<input>
				<port id="0" precision="FP32">
					<dim>-1</dim>
					<dim>24</dim>
					<dim>14</dim>
					<dim>14</dim>
				</port>
				<port id="1" precision="FP32">
					<dim>88</dim>
					<dim>24</dim>
					<dim>1</dim>
					<dim>1</dim>
				</port>
			</input>
			<output>
				<port id="2" precision="FP32">
					<dim>-1</dim>
					<dim>88</dim>
					<dim>14</dim>
					<dim>14</dim>
				</port>
			</output>
		</layer>
		<layer id="44" name="Reshape_35770" type="Const" version="opset1">
			<data element_type="f32" shape="1, 88, 1, 1" offset="27888" size="352" />
			<output>
				<port id="0" precision="FP32">
					<dim>1</dim>
					<dim>88</dim>
					<dim>1</dim>
					<dim>1</dim>
				</port>
			</output>
		</layer>
		<layer id="45" name="Add_35771" type="Add" version="opset1">
			<data auto_broadcast="numpy" />
			<input>
				<port id="0" precision="FP32">
					<dim>-1</dim>
					<dim>88</dim>
					<dim>14</dim>
					<dim>14</dim>
				</port>
				<port id="1" precision="FP32">
					<dim>1</dim>
					<dim>88</dim>
					<dim>1</dim>
					<dim>1</dim>
				</port>
			</input>
			<output>
				<port id="2" precision="FP32">
					<dim>-1</dim>
					<dim>88</dim>
					<dim>14</dim>
					<dim>14</dim>
				</port>
			</output>
		</layer>
		<layer id="46" name="fused Conv_35" type="ReLU" version="opset1">
			<input>
				<port id="0" precision="FP32">
					<dim>-1</dim>
					<dim>88</dim>
					<dim>14</dim>
					<dim>14</dim>
				</port>
			</input>
			<output>
				<port id="1" precision="FP32" names="318">
					<dim>-1</dim>
					<dim>88</dim>
					<dim>14</dim>
					<dim>14</dim>
				</port>
			</output>
		</layer>
		<layer id="47" name="Reshape_35780" type="Const" version="opset1">
			<data element_type="f32" shape="88, 1, 1, 3, 3" offset="28240" size="3168" />
			<output>
				<port id="0" precision="FP32">
					<dim>88</dim>
					<dim>1</dim>
					<dim>1</dim>
					<dim>3</dim>
					<dim>3</dim>
				</port>
			</output>
		</layer>
		<layer id="48" name="fused Conv_38/WithoutBiases" type="GroupConvolution" version="opset1">
			<data strides="1, 1" pads_begin="1, 1" pads_end="1, 1" dilations="1, 1" auto_pad="explicit" />
			<input>
				<port id="0" precision="FP32">
					<dim>-1</dim>
					<dim>88</dim>
					<dim>14</dim>
					<dim>14</dim>
				</port>
				<port id="1" precision="FP32">
					<dim>88</dim>
					<dim>1</dim>
					<dim>1</dim>
					<dim>3</dim>
					<dim>3</dim>
				</port>
			</input>
			<output>
				<port id="2" precision="FP32">
					<dim>-1</dim>
					<dim>88</dim>
					<dim>14</dim>
					<dim>14</dim>
				</port>
			</output>
		</layer>
		<layer id="49" name="Reshape_35830" type="Const" version="opset1">
			<data element_type="f32" shape="1, 88, 1, 1" offset="31408" size="352" />
			<output>
				<port id="0" precision="FP32">
					<dim>1</dim>
					<dim>88</dim>
					<dim>1</dim>
					<dim>1</dim>
				</port>
			</output>
		</layer>
		<layer id="50" name="Add_35831" type="Add" version="opset1">
			<data auto_broadcast="numpy" />
			<input>
				<port id="0" precision="FP32">
					<dim>-1</dim>
					<dim>88</dim>
					<dim>14</dim>
					<dim>14</dim>
				</port>
				<port id="1" precision="FP32">
					<dim>1</dim>
					<dim>88</dim>
					<dim>1</dim>
					<dim>1</dim>
				</port>
			</input>
			<output>
				<port id="2" precision="FP32">
					<dim>-1</dim>
					<dim>88</dim>
					<dim>14</dim>
					<dim>14</dim>
				</port>
			</output>
		</layer>
		<layer id="51" name="fused Conv_38" type="ReLU" version="opset1">
			<input>
				<port id="0" precision="FP32">
					<dim>-1</dim>
					<dim>88</dim>
					<dim>14</dim>
					<dim>14</dim>
				</port>
			</input>
			<output>
				<port id="1" precision="FP32" names="321">
					<dim>-1</dim>
					<dim>88</dim>
					<dim>14</dim>
					<dim>14</dim>
				</port>
			</output>
		</layer>
		<layer id="52" name="ConvBnFusion_W_blocks.1.1.conv_pwl.weight" type="Const" version="opset1">
			<data element_type="f32" shape="24, 88, 1, 1" offset="31760" size="8448" />
			<output>
				<port id="0" precision="FP32" names="ConvBnFusion_W_blocks.1.1.conv_pwl.weight">
					<dim>24</dim>
					<dim>88</dim>
					<dim>1</dim>
					<dim>1</dim>
				</port>
			</output>
		</layer>
		<layer id="53" name="Conv_41/WithoutBiases" type="Convolution" version="opset1">
			<data strides="1, 1" dilations="1, 1" pads_begin="0, 0" pads_end="0, 0" auto_pad="explicit" />
			<input>
				<port id="0" precision="FP32">
					<dim>-1</dim>
					<dim>88</dim>
					<dim>14</dim>
					<dim>14</dim>
				</port>
				<port id="1" precision="FP32">
					<dim>24</dim>
					<dim>88</dim>
					<dim>1</dim>
					<dim>1</dim>
				</port>
			</input>
			<output>
				<port id="2" precision="FP32">
					<dim>-1</dim>
					<dim>24</dim>
					<dim>14</dim>
					<dim>14</dim>
				</port>
			</output>
		</layer>
		<layer id="54" name="Reshape_35844" type="Const" version="opset1">
			<data element_type="f32" shape="1, 24, 1, 1" offset="40208" size="96" />
			<output>
				<port id="0" precision="FP32">
					<dim>1</dim>
					<dim>24</dim>
					<dim>1</dim>
					<dim>1</dim>
				</port>
			</output>
		</layer>
		<layer id="55" name="Conv_41" type="Add" version="opset1">
			<data auto_broadcast="numpy" />
			<input>
				<port id="0" precision="FP32">
					<dim>-1</dim>
					<dim>24</dim>
					<dim>14</dim>
					<dim>14</dim>
				</port>
				<port id="1" precision="FP32">
					<dim>1</dim>
					<dim>24</dim>
					<dim>1</dim>
					<dim>1</dim>
				</port>
			</input>
			<output>
				<port id="2" precision="FP32" names="323">
					<dim>-1</dim>
					<dim>24</dim>
					<dim>14</dim>
					<dim>14</dim>
				</port>
			</output>
		</layer>
		<layer id="56" name="Add_43" type="Add" version="opset1">
			<data auto_broadcast="numpy" />
			<input>
				<port id="0" precision="FP32">
					<dim>-1</dim>
					<dim>24</dim>
					<dim>14</dim>
					<dim>14</dim>
				</port>
				<port id="1" precision="FP32">
					<dim>-1</dim>
					<dim>24</dim>
					<dim>14</dim>
					<dim>14</dim>
				</port>
			</input>
			<output>
				<port id="2" precision="FP32" names="324">
					<dim>-1</dim>
					<dim>24</dim>
					<dim>14</dim>
					<dim>14</dim>
				</port>
			</output>
		</layer>
		<layer id="57" name="ConvBnFusion_W_blocks.2.0.conv_pw.weight" type="Const" version="opset1">
			<data element_type="f32" shape="96, 24, 1, 1" offset="40304" size="9216" />
			<output>
				<port id="0" precision="FP32" names="ConvBnFusion_W_blocks.2.0.conv_pw.weight">
					<dim>96</dim>
					<dim>24</dim>
					<dim>1</dim>
					<dim>1</dim>
				</port>
			</output>
		</layer>
		<layer id="58" name="Conv_44/WithoutBiases" type="Convolution" version="opset1">
			<data strides="1, 1" dilations="1, 1" pads_begin="0, 0" pads_end="0, 0" auto_pad="explicit" />
			<input>
				<port id="0" precision="FP32">
					<dim>-1</dim>
					<dim>24</dim>
					<dim>14</dim>
					<dim>14</dim>
				</port>
				<port id="1" precision="FP32">
					<dim>96</dim>
					<dim>24</dim>
					<dim>1</dim>
					<dim>1</dim>
				</port>
			</input>
			<output>
				<port id="2" precision="FP32">
					<dim>-1</dim>
					<dim>96</dim>
					<dim>14</dim>
					<dim>14</dim>
				</port>
			</output>
		</layer>
		<layer id="59" name="Reshape_35858" type="Const" version="opset1">
			<data element_type="f32" shape="1, 96, 1, 1" offset="49520" size="384" />
			<output>
				<port id="0" precision="FP32">
					<dim>1</dim>
					<dim>96</dim>
					<dim>1</dim>
					<dim>1</dim>
				</port>
			</output>
		</layer>
		<layer id="60" name="Conv_44" type="Add" version="opset1">
			<data auto_broadcast="numpy" />
			<input>
				<port id="0" precision="FP32">
					<dim>-1</dim>
					<dim>96</dim>
					<dim>14</dim>
					<dim>14</dim>
				</port>
				<port id="1" precision="FP32">
					<dim>1</dim>
					<dim>96</dim>
					<dim>1</dim>
					<dim>1</dim>
				</port>
			</input>
			<output>
				<port id="2" precision="FP32" names="326">
					<dim>-1</dim>
					<dim>96</dim>
					<dim>14</dim>
					<dim>14</dim>
				</port>
			</output>
		</layer>
		<layer id="61" name="Mul_53" type="HSwish" version="opset4">
			<input>
				<port id="0" precision="FP32">
					<dim>-1</dim>
					<dim>96</dim>
					<dim>14</dim>
					<dim>14</dim>
				</port>
			</input>
			<output>
				<port id="1" precision="FP32" names="334">
					<dim>-1</dim>
					<dim>96</dim>
					<dim>14</dim>
					<dim>14</dim>
				</port>
			</output>
		</layer>
		<layer id="62" name="Reshape_35872" type="Const" version="opset1">
			<data element_type="f32" shape="96, 1, 1, 5, 5" offset="49904" size="9600" />
			<output>
				<port id="0" precision="FP32">
					<dim>96</dim>
					<dim>1</dim>
					<dim>1</dim>
					<dim>5</dim>
					<dim>5</dim>
				</port>
			</output>
		</layer>
		<layer id="63" name="Conv_54/WithoutBiases" type="GroupConvolution" version="opset1">
			<data strides="2, 2" pads_begin="2, 2" pads_end="2, 2" dilations="1, 1" auto_pad="explicit" />
			<input>
				<port id="0" precision="FP32">
					<dim>-1</dim>
					<dim>96</dim>
					<dim>14</dim>
					<dim>14</dim>
				</port>
				<port id="1" precision="FP32">
					<dim>96</dim>
					<dim>1</dim>
					<dim>1</dim>
					<dim>5</dim>
					<dim>5</dim>
				</port>
			</input>
			<output>
				<port id="2" precision="FP32">
					<dim>-1</dim>
					<dim>96</dim>
					<dim>7</dim>
					<dim>7</dim>
				</port>
			</output>
		</layer>
		<layer id="64" name="Reshape_35922" type="Const" version="opset1">
			<data element_type="f32" shape="1, 96, 1, 1" offset="59504" size="384" />
			<output>
				<port id="0" precision="FP32">
					<dim>1</dim>
					<dim>96</dim>
					<dim>1</dim>
					<dim>1</dim>
				</port>
			</output>
		</layer>
		<layer id="65" name="Conv_54" type="Add" version="opset1">
			<data auto_broadcast="numpy" />
			<input>
				<port id="0" precision="FP32">
					<dim>-1</dim>
					<dim>96</dim>
					<dim>7</dim>
					<dim>7</dim>
				</port>
				<port id="1" precision="FP32">
					<dim>1</dim>
					<dim>96</dim>
					<dim>1</dim>
					<dim>1</dim>
				</port>
			</input>
			<output>
				<port id="2" precision="FP32" names="336">
					<dim>-1</dim>
					<dim>96</dim>
					<dim>7</dim>
					<dim>7</dim>
				</port>
			</output>
		</layer>
		<layer id="66" name="Mul_63" type="HSwish" version="opset4">
			<input>
				<port id="0" precision="FP32">
					<dim>-1</dim>
					<dim>96</dim>
					<dim>7</dim>
					<dim>7</dim>
				</port>
			</input>
			<output>
				<port id="1" precision="FP32" names="344">
					<dim>-1</dim>
					<dim>96</dim>
					<dim>7</dim>
					<dim>7</dim>
				</port>
			</output>
		</layer>
		<layer id="67" name="Range_35935" type="Const" version="opset1">
			<data element_type="i64" shape="2" offset="2432" size="16" />
			<output>
				<port id="0" precision="I64">
					<dim>2</dim>
				</port>
			</output>
		</layer>
		<layer id="68" name="GlobalAveragePool_64" type="ReduceMean" version="opset1">
			<data keep_dims="true" />
			<input>
				<port id="0" precision="FP32">
					<dim>-1</dim>
					<dim>96</dim>
					<dim>7</dim>
					<dim>7</dim>
				</port>
				<port id="1" precision="I64">
					<dim>2</dim>
				</port>
			</input>
			<output>
				<port id="2" precision="FP32" names="345">
					<dim>-1</dim>
					<dim>96</dim>
					<dim>1</dim>
					<dim>1</dim>
				</port>
			</output>
		</layer>
		<layer id="69" name="blocks.2.0.se.conv_reduce.weight" type="Const" version="opset1">
			<data element_type="f32" shape="24, 96, 1, 1" offset="59888" size="9216" />
			<output>
				<port id="0" precision="FP32" names="blocks.2.0.se.conv_reduce.weight">
					<dim>24</dim>
					<dim>96</dim>
					<dim>1</dim>
					<dim>1</dim>
				</port>
			</output>
		</layer>
		<layer id="70" name="fused Conv_65/WithoutBiases" type="Convolution" version="opset1">
			<data strides="1, 1" dilations="1, 1" pads_begin="0, 0" pads_end="0, 0" auto_pad="explicit" />
			<input>
				<port id="0" precision="FP32">
					<dim>-1</dim>
					<dim>96</dim>
					<dim>1</dim>
					<dim>1</dim>
				</port>
				<port id="1" precision="FP32">
					<dim>24</dim>
					<dim>96</dim>
					<dim>1</dim>
					<dim>1</dim>
				</port>
			</input>
			<output>
				<port id="2" precision="FP32">
					<dim>-1</dim>
					<dim>24</dim>
					<dim>1</dim>
					<dim>1</dim>
				</port>
			</output>
		</layer>
		<layer id="71" name="Reshape_35950" type="Const" version="opset1">
			<data element_type="f32" shape="1, 24, 1, 1" offset="69104" size="96" />
			<output>
				<port id="0" precision="FP32">
					<dim>1</dim>
					<dim>24</dim>
					<dim>1</dim>
					<dim>1</dim>
				</port>
			</output>
		</layer>
		<layer id="72" name="Add_35951" type="Add" version="opset1">
			<data auto_broadcast="numpy" />
			<input>
				<port id="0" precision="FP32">
					<dim>-1</dim>
					<dim>24</dim>
					<dim>1</dim>
					<dim>1</dim>
				</port>
				<port id="1" precision="FP32">
					<dim>1</dim>
					<dim>24</dim>
					<dim>1</dim>
					<dim>1</dim>
				</port>
			</input>
			<output>
				<port id="2" precision="FP32">
					<dim>-1</dim>
					<dim>24</dim>
					<dim>1</dim>
					<dim>1</dim>
				</port>
			</output>
		</layer>
		<layer id="73" name="fused Conv_65" type="ReLU" version="opset1">
			<input>
				<port id="0" precision="FP32">
					<dim>-1</dim>
					<dim>24</dim>
					<dim>1</dim>
					<dim>1</dim>
				</port>
			</input>
			<output>
				<port id="1" precision="FP32" names="347">
					<dim>-1</dim>
					<dim>24</dim>
					<dim>1</dim>
					<dim>1</dim>
				</port>
			</output>
		</layer>
		<layer id="74" name="blocks.2.0.se.conv_expand.weight" type="Const" version="opset1">
			<data element_type="f32" shape="96, 24, 1, 1" offset="69200" size="9216" />
			<output>
				<port id="0" precision="FP32" names="blocks.2.0.se.conv_expand.weight">
					<dim>96</dim>
					<dim>24</dim>
					<dim>1</dim>
					<dim>1</dim>
				</port>
			</output>
		</layer>
		<layer id="75" name="Conv_67/WithoutBiases" type="Convolution" version="opset1">
			<data strides="1, 1" dilations="1, 1" pads_begin="0, 0" pads_end="0, 0" auto_pad="explicit" />
			<input>
				<port id="0" precision="FP32">
					<dim>-1</dim>
					<dim>24</dim>
					<dim>1</dim>
					<dim>1</dim>
				</port>
				<port id="1" precision="FP32">
					<dim>96</dim>
					<dim>24</dim>
					<dim>1</dim>
					<dim>1</dim>
				</port>
			</input>
			<output>
				<port id="2" precision="FP32">
					<dim>-1</dim>
					<dim>96</dim>
					<dim>1</dim>
					<dim>1</dim>
				</port>
			</output>
		</layer>
		<layer id="76" name="Reshape_35964" type="Const" version="opset1">
			<data element_type="f32" shape="1, 96, 1, 1" offset="78416" size="384" />
			<output>
				<port id="0" precision="FP32">
					<dim>1</dim>
					<dim>96</dim>
					<dim>1</dim>
					<dim>1</dim>
				</port>
			</output>
		</layer>
		<layer id="77" name="Conv_67" type="Add" version="opset1">
			<data auto_broadcast="numpy" />
			<input>
				<port id="0" precision="FP32">
					<dim>-1</dim>
					<dim>96</dim>
					<dim>1</dim>
					<dim>1</dim>
				</port>
				<port id="1" precision="FP32">
					<dim>1</dim>
					<dim>96</dim>
					<dim>1</dim>
					<dim>1</dim>
				</port>
			</input>
			<output>
				<port id="2" precision="FP32" names="348">
					<dim>-1</dim>
					<dim>96</dim>
					<dim>1</dim>
					<dim>1</dim>
				</port>
			</output>
		</layer>
		<layer id="78" name="Div_74" type="HSigmoid" version="opset5">
			<input>
				<port id="0" precision="FP32">
					<dim>-1</dim>
					<dim>96</dim>
					<dim>1</dim>
					<dim>1</dim>
				</port>
			</input>
			<output>
				<port id="1" precision="FP32" names="355">
					<dim>-1</dim>
					<dim>96</dim>
					<dim>1</dim>
					<dim>1</dim>
				</port>
			</output>
		</layer>
		<layer id="79" name="Mul_75" type="Multiply" version="opset1">
			<data auto_broadcast="numpy" />
			<input>
				<port id="0" precision="FP32">
					<dim>-1</dim>
					<dim>96</dim>
					<dim>7</dim>
					<dim>7</dim>
				</port>
				<port id="1" precision="FP32">
					<dim>-1</dim>
					<dim>96</dim>
					<dim>1</dim>
					<dim>1</dim>
				</port>
			</input>
			<output>
				<port id="2" precision="FP32" names="356">
					<dim>-1</dim>
					<dim>96</dim>
					<dim>7</dim>
					<dim>7</dim>
				</port>
			</output>
		</layer>
		<layer id="80" name="ConvBnFusion_W_blocks.2.0.conv_pwl.weight" type="Const" version="opset1">
			<data element_type="f32" shape="40, 96, 1, 1" offset="78800" size="15360" />
			<output>
				<port id="0" precision="FP32" names="ConvBnFusion_W_blocks.2.0.conv_pwl.weight">
					<dim>40</dim>
					<dim>96</dim>
					<dim>1</dim>
					<dim>1</dim>
				</port>
			</output>
		</layer>
		<layer id="81" name="Conv_76/WithoutBiases" type="Convolution" version="opset1">
			<data strides="1, 1" dilations="1, 1" pads_begin="0, 0" pads_end="0, 0" auto_pad="explicit" />
			<input>
				<port id="0" precision="FP32">
					<dim>-1</dim>
					<dim>96</dim>
					<dim>7</dim>
					<dim>7</dim>
				</port>
				<port id="1" precision="FP32">
					<dim>40</dim>
					<dim>96</dim>
					<dim>1</dim>
					<dim>1</dim>
				</port>
			</input>
			<output>
				<port id="2" precision="FP32">
					<dim>-1</dim>
					<dim>40</dim>
					<dim>7</dim>
					<dim>7</dim>
				</port>
			</output>
		</layer>
		<layer id="82" name="Reshape_35982" type="Const" version="opset1">
			<data element_type="f32" shape="1, 40, 1, 1" offset="94160" size="160" />
			<output>
				<port id="0" precision="FP32">
					<dim>1</dim>
					<dim>40</dim>
					<dim>1</dim>
					<dim>1</dim>
				</port>
			</output>
		</layer>
		<layer id="83" name="Conv_76" type="Add" version="opset1">
			<data auto_broadcast="numpy" />
			<input>
				<port id="0" precision="FP32">
					<dim>-1</dim>
					<dim>40</dim>
					<dim>7</dim>
					<dim>7</dim>
				</port>
				<port id="1" precision="FP32">
					<dim>1</dim>
					<dim>40</dim>
					<dim>1</dim>
					<dim>1</dim>
				</port>
			</input>
			<output>
				<port id="2" precision="FP32" names="358">
					<dim>-1</dim>
					<dim>40</dim>
					<dim>7</dim>
					<dim>7</dim>
				</port>
			</output>
		</layer>
		<layer id="84" name="ConvBnFusion_W_blocks.2.1.conv_pw.weight" type="Const" version="opset1">
			<data element_type="f32" shape="240, 40, 1, 1" offset="94320" size="38400" />
			<output>
				<port id="0" precision="FP32" names="ConvBnFusion_W_blocks.2.1.conv_pw.weight">
					<dim>240</dim>
					<dim>40</dim>
					<dim>1</dim>
					<dim>1</dim>
				</port>
			</output>
		</layer>
		<layer id="85" name="Conv_78/WithoutBiases" type="Convolution" version="opset1">
			<data strides="1, 1" dilations="1, 1" pads_begin="0, 0" pads_end="0, 0" auto_pad="explicit" />
			<input>
				<port id="0" precision="FP32">
					<dim>-1</dim>
					<dim>40</dim>
					<dim>7</dim>
					<dim>7</dim>
				</port>
				<port id="1" precision="FP32">
					<dim>240</dim>
					<dim>40</dim>
					<dim>1</dim>
					<dim>1</dim>
				</port>
			</input>
			<output>
				<port id="2" precision="FP32">
					<dim>-1</dim>
					<dim>240</dim>
					<dim>7</dim>
					<dim>7</dim>
				</port>
			</output>
		</layer>
		<layer id="86" name="Reshape_35995" type="Const" version="opset1">
			<data element_type="f32" shape="1, 240, 1, 1" offset="132720" size="960" />
			<output>
				<port id="0" precision="FP32">
					<dim>1</dim>
					<dim>240</dim>
					<dim>1</dim>
					<dim>1</dim>
				</port>
			</output>
		</layer>
		<layer id="87" name="Conv_78" type="Add" version="opset1">
			<data auto_broadcast="numpy" />
			<input>
				<port id="0" precision="FP32">
					<dim>-1</dim>
					<dim>240</dim>
					<dim>7</dim>
					<dim>7</dim>
				</port>
				<port id="1" precision="FP32">
					<dim>1</dim>
					<dim>240</dim>
					<dim>1</dim>
					<dim>1</dim>
				</port>
			</input>
			<output>
				<port id="2" precision="FP32" names="360">
					<dim>-1</dim>
					<dim>240</dim>
					<dim>7</dim>
					<dim>7</dim>
				</port>
			</output>
		</layer>
		<layer id="88" name="Mul_87" type="HSwish" version="opset4">
			<input>
				<port id="0" precision="FP32">
					<dim>-1</dim>
					<dim>240</dim>
					<dim>7</dim>
					<dim>7</dim>
				</port>
			</input>
			<output>
				<port id="1" precision="FP32" names="368">
					<dim>-1</dim>
					<dim>240</dim>
					<dim>7</dim>
					<dim>7</dim>
				</port>
			</output>
		</layer>
		<layer id="89" name="Reshape_36009" type="Const" version="opset1">
			<data element_type="f32" shape="240, 1, 1, 5, 5" offset="133680" size="24000" />
			<output>
				<port id="0" precision="FP32">
					<dim>240</dim>
					<dim>1</dim>
					<dim>1</dim>
					<dim>5</dim>
					<dim>5</dim>
				</port>
			</output>
		</layer>
		<layer id="90" name="Conv_88/WithoutBiases" type="GroupConvolution" version="opset1">
			<data strides="1, 1" pads_begin="2, 2" pads_end="2, 2" dilations="1, 1" auto_pad="explicit" />
			<input>
				<port id="0" precision="FP32">
					<dim>-1</dim>
					<dim>240</dim>
					<dim>7</dim>
					<dim>7</dim>
				</port>
				<port id="1" precision="FP32">
					<dim>240</dim>
					<dim>1</dim>
					<dim>1</dim>
					<dim>5</dim>
					<dim>5</dim>
				</port>
			</input>
			<output>
				<port id="2" precision="FP32">
					<dim>-1</dim>
					<dim>240</dim>
					<dim>7</dim>
					<dim>7</dim>
				</port>
			</output>
		</layer>
		<layer id="91" name="Reshape_36059" type="Const" version="opset1">
			<data element_type="f32" shape="1, 240, 1, 1" offset="157680" size="960" />
			<output>
				<port id="0" precision="FP32">
					<dim>1</dim>
					<dim>240</dim>
					<dim>1</dim>
					<dim>1</dim>
				</port>
			</output>
		</layer>
		<layer id="92" name="Conv_88" type="Add" version="opset1">
			<data auto_broadcast="numpy" />
			<input>
				<port id="0" precision="FP32">
					<dim>-1</dim>
					<dim>240</dim>
					<dim>7</dim>
					<dim>7</dim>
				</port>
				<port id="1" precision="FP32">
					<dim>1</dim>
					<dim>240</dim>
					<dim>1</dim>
					<dim>1</dim>
				</port>
			</input>
			<output>
				<port id="2" precision="FP32" names="370">
					<dim>-1</dim>
					<dim>240</dim>
					<dim>7</dim>
					<dim>7</dim>
				</port>
			</output>
		</layer>
		<layer id="93" name="Mul_97" type="HSwish" version="opset4">
			<input>
				<port id="0" precision="FP32">
					<dim>-1</dim>
					<dim>240</dim>
					<dim>7</dim>
					<dim>7</dim>
				</port>
			</input>
			<output>
				<port id="1" precision="FP32" names="378">
					<dim>-1</dim>
					<dim>240</dim>
					<dim>7</dim>
					<dim>7</dim>
				</port>
			</output>
		</layer>
		<layer id="94" name="Range_36072" type="Const" version="opset1">
			<data element_type="i64" shape="2" offset="2432" size="16" />
			<output>
				<port id="0" precision="I64">
					<dim>2</dim>
				</port>
			</output>
		</layer>
		<layer id="95" name="GlobalAveragePool_98" type="ReduceMean" version="opset1">
			<data keep_dims="true" />
			<input>
				<port id="0" precision="FP32">
					<dim>-1</dim>
					<dim>240</dim>
					<dim>7</dim>
					<dim>7</dim>
				</port>
				<port id="1" precision="I64">
					<dim>2</dim>
				</port>
			</input>
			<output>
				<port id="2" precision="FP32" names="379">
					<dim>-1</dim>
					<dim>240</dim>
					<dim>1</dim>
					<dim>1</dim>
				</port>
			</output>
		</layer>
		<layer id="96" name="blocks.2.1.se.conv_reduce.weight" type="Const" version="opset1">
			<data element_type="f32" shape="64, 240, 1, 1" offset="158640" size="61440" />
			<output>
				<port id="0" precision="FP32" names="blocks.2.1.se.conv_reduce.weight">
					<dim>64</dim>
					<dim>240</dim>
					<dim>1</dim>
					<dim>1</dim>
				</port>
			</output>
		</layer>
		<layer id="97" name="fused Conv_99/WithoutBiases" type="Convolution" version="opset1">
			<data strides="1, 1" dilations="1, 1" pads_begin="0, 0" pads_end="0, 0" auto_pad="explicit" />
			<input>
				<port id="0" precision="FP32">
					<dim>-1</dim>
					<dim>240</dim>
					<dim>1</dim>
					<dim>1</dim>
				</port>
				<port id="1" precision="FP32">
					<dim>64</dim>
					<dim>240</dim>
					<dim>1</dim>
					<dim>1</dim>
				</port>
			</input>
			<output>
				<port id="2" precision="FP32">
					<dim>-1</dim>
					<dim>64</dim>
					<dim>1</dim>
					<dim>1</dim>
				</port>
			</output>
		</layer>
		<layer id="98" name="Reshape_36087" type="Const" version="opset1">
			<data element_type="f32" shape="1, 64, 1, 1" offset="220080" size="256" />
			<output>
				<port id="0" precision="FP32">
					<dim>1</dim>
					<dim>64</dim>
					<dim>1</dim>
					<dim>1</dim>
				</port>
			</output>
		</layer>
		<layer id="99" name="Add_36088" type="Add" version="opset1">
			<data auto_broadcast="numpy" />
			<input>
				<port id="0" precision="FP32">
					<dim>-1</dim>
					<dim>64</dim>
					<dim>1</dim>
					<dim>1</dim>
				</port>
				<port id="1" precision="FP32">
					<dim>1</dim>
					<dim>64</dim>
					<dim>1</dim>
					<dim>1</dim>
				</port>
			</input>
			<output>
				<port id="2" precision="FP32">
					<dim>-1</dim>
					<dim>64</dim>
					<dim>1</dim>
					<dim>1</dim>
				</port>
			</output>
		</layer>
		<layer id="100" name="fused Conv_99" type="ReLU" version="opset1">
			<input>
				<port id="0" precision="FP32">
					<dim>-1</dim>
					<dim>64</dim>
					<dim>1</dim>
					<dim>1</dim>
				</port>
			</input>
			<output>
				<port id="1" precision="FP32" names="381">
					<dim>-1</dim>
					<dim>64</dim>
					<dim>1</dim>
					<dim>1</dim>
				</port>
			</output>
		</layer>
		<layer id="101" name="blocks.2.1.se.conv_expand.weight" type="Const" version="opset1">
			<data element_type="f32" shape="240, 64, 1, 1" offset="220336" size="61440" />
			<output>
				<port id="0" precision="FP32" names="blocks.2.1.se.conv_expand.weight">
					<dim>240</dim>
					<dim>64</dim>
					<dim>1</dim>
					<dim>1</dim>
				</port>
			</output>
		</layer>
		<layer id="102" name="Conv_101/WithoutBiases" type="Convolution" version="opset1">
			<data strides="1, 1" dilations="1, 1" pads_begin="0, 0" pads_end="0, 0" auto_pad="explicit" />
			<input>
				<port id="0" precision="FP32">
					<dim>-1</dim>
					<dim>64</dim>
					<dim>1</dim>
					<dim>1</dim>
				</port>
				<port id="1" precision="FP32">
					<dim>240</dim>
					<dim>64</dim>
					<dim>1</dim>
					<dim>1</dim>
				</port>
			</input>
			<output>
				<port id="2" precision="FP32">
					<dim>-1</dim>
					<dim>240</dim>
					<dim>1</dim>
					<dim>1</dim>
				</port>
			</output>
		</layer>
		<layer id="103" name="Reshape_36101" type="Const" version="opset1">
			<data element_type="f32" shape="1, 240, 1, 1" offset="281776" size="960" />
			<output>
				<port id="0" precision="FP32">
					<dim>1</dim>
					<dim>240</dim>
					<dim>1</dim>
					<dim>1</dim>
				</port>
			</output>
		</layer>
		<layer id="104" name="Conv_101" type="Add" version="opset1">
			<data auto_broadcast="numpy" />
			<input>
				<port id="0" precision="FP32">
					<dim>-1</dim>
					<dim>240</dim>
					<dim>1</dim>
					<dim>1</dim>
				</port>
				<port id="1" precision="FP32">
					<dim>1</dim>
					<dim>240</dim>
					<dim>1</dim>
					<dim>1</dim>
				</port>
			</input>
			<output>
				<port id="2" precision="FP32" names="382">
					<dim>-1</dim>
					<dim>240</dim>
					<dim>1</dim>
					<dim>1</dim>
				</port>
			</output>
		</layer>
		<layer id="105" name="Div_108" type="HSigmoid" version="opset5">
			<input>
				<port id="0" precision="FP32">
					<dim>-1</dim>
					<dim>240</dim>
					<dim>1</dim>
					<dim>1</dim>
				</port>
			</input>
			<output>
				<port id="1" precision="FP32" names="389">
					<dim>-1</dim>
					<dim>240</dim>
					<dim>1</dim>
					<dim>1</dim>
				</port>
			</output>
		</layer>
		<layer id="106" name="Mul_109" type="Multiply" version="opset1">
			<data auto_broadcast="numpy" />
			<input>
				<port id="0" precision="FP32">
					<dim>-1</dim>
					<dim>240</dim>
					<dim>7</dim>
					<dim>7</dim>
				</port>
				<port id="1" precision="FP32">
					<dim>-1</dim>
					<dim>240</dim>
					<dim>1</dim>
					<dim>1</dim>
				</port>
			</input>
			<output>
				<port id="2" precision="FP32" names="390">
					<dim>-1</dim>
					<dim>240</dim>
					<dim>7</dim>
					<dim>7</dim>
				</port>
			</output>
		</layer>
		<layer id="107" name="ConvBnFusion_W_blocks.2.1.conv_pwl.weight" type="Const" version="opset1">
			<data element_type="f32" shape="40, 240, 1, 1" offset="282736" size="38400" />
			<output>
				<port id="0" precision="FP32" names="ConvBnFusion_W_blocks.2.1.conv_pwl.weight">
					<dim>40</dim>
					<dim>240</dim>
					<dim>1</dim>
					<dim>1</dim>
				</port>
			</output>
		</layer>
		<layer id="108" name="Conv_110/WithoutBiases" type="Convolution" version="opset1">
			<data strides="1, 1" dilations="1, 1" pads_begin="0, 0" pads_end="0, 0" auto_pad="explicit" />
			<input>
				<port id="0" precision="FP32">
					<dim>-1</dim>
					<dim>240</dim>
					<dim>7</dim>
					<dim>7</dim>
				</port>
				<port id="1" precision="FP32">
					<dim>40</dim>
					<dim>240</dim>
					<dim>1</dim>
					<dim>1</dim>
				</port>
			</input>
			<output>
				<port id="2" precision="FP32">
					<dim>-1</dim>
					<dim>40</dim>
					<dim>7</dim>
					<dim>7</dim>
				</port>
			</output>
		</layer>
		<layer id="109" name="Reshape_36119" type="Const" version="opset1">
			<data element_type="f32" shape="1, 40, 1, 1" offset="321136" size="160" />
			<output>
				<port id="0" precision="FP32">
					<dim>1</dim>
					<dim>40</dim>
					<dim>1</dim>
					<dim>1</dim>
				</port>
			</output>
		</layer>
		<layer id="110" name="Conv_110" type="Add" version="opset1">
			<data auto_broadcast="numpy" />
			<input>
				<port id="0" precision="FP32">
					<dim>-1</dim>
					<dim>40</dim>
					<dim>7</dim>
					<dim>7</dim>
				</port>
				<port id="1" precision="FP32">
					<dim>1</dim>
					<dim>40</dim>
					<dim>1</dim>
					<dim>1</dim>
				</port>
			</input>
			<output>
				<port id="2" precision="FP32" names="392">
					<dim>-1</dim>
					<dim>40</dim>
					<dim>7</dim>
					<dim>7</dim>
				</port>
			</output>
		</layer>
		<layer id="111" name="Add_112" type="Add" version="opset1">
			<data auto_broadcast="numpy" />
			<input>
				<port id="0" precision="FP32">
					<dim>-1</dim>
					<dim>40</dim>
					<dim>7</dim>
					<dim>7</dim>
				</port>
				<port id="1" precision="FP32">
					<dim>-1</dim>
					<dim>40</dim>
					<dim>7</dim>
					<dim>7</dim>
				</port>
			</input>
			<output>
				<port id="2" precision="FP32" names="393">
					<dim>-1</dim>
					<dim>40</dim>
					<dim>7</dim>
					<dim>7</dim>
				</port>
			</output>
		</layer>
		<layer id="112" name="ConvBnFusion_W_blocks.2.2.conv_pw.weight" type="Const" version="opset1">
			<data element_type="f32" shape="240, 40, 1, 1" offset="321296" size="38400" />
			<output>
				<port id="0" precision="FP32" names="ConvBnFusion_W_blocks.2.2.conv_pw.weight">
					<dim>240</dim>
					<dim>40</dim>
					<dim>1</dim>
					<dim>1</dim>
				</port>
			</output>
		</layer>
		<layer id="113" name="Conv_113/WithoutBiases" type="Convolution" version="opset1">
			<data strides="1, 1" dilations="1, 1" pads_begin="0, 0" pads_end="0, 0" auto_pad="explicit" />
			<input>
				<port id="0" precision="FP32">
					<dim>-1</dim>
					<dim>40</dim>
					<dim>7</dim>
					<dim>7</dim>
				</port>
				<port id="1" precision="FP32">
					<dim>240</dim>
					<dim>40</dim>
					<dim>1</dim>
					<dim>1</dim>
				</port>
			</input>
			<output>
				<port id="2" precision="FP32">
					<dim>-1</dim>
					<dim>240</dim>
					<dim>7</dim>
					<dim>7</dim>
				</port>
			</output>
		</layer>
		<layer id="114" name="Reshape_36133" type="Const" version="opset1">
			<data element_type="f32" shape="1, 240, 1, 1" offset="359696" size="960" />
			<output>
				<port id="0" precision="FP32">
					<dim>1</dim>
					<dim>240</dim>
					<dim>1</dim>
					<dim>1</dim>
				</port>
			</output>
		</layer>
		<layer id="115" name="Conv_113" type="Add" version="opset1">
			<data auto_broadcast="numpy" />
			<input>
				<port id="0" precision="FP32">
					<dim>-1</dim>
					<dim>240</dim>
					<dim>7</dim>
					<dim>7</dim>
				</port>
				<port id="1" precision="FP32">
					<dim>1</dim>
					<dim>240</dim>
					<dim>1</dim>
					<dim>1</dim>
				</port>
			</input>
			<output>
				<port id="2" precision="FP32" names="395">
					<dim>-1</dim>
					<dim>240</dim>
					<dim>7</dim>
					<dim>7</dim>
				</port>
			</output>
		</layer>
		<layer id="116" name="Mul_122" type="HSwish" version="opset4">
			<input>
				<port id="0" precision="FP32">
					<dim>-1</dim>
					<dim>240</dim>
					<dim>7</dim>
					<dim>7</dim>
				</port>
			</input>
			<output>
				<port id="1" precision="FP32" names="403">
					<dim>-1</dim>
					<dim>240</dim>
					<dim>7</dim>
					<dim>7</dim>
				</port>
			</output>
		</layer>
		<layer id="117" name="Reshape_36147" type="Const" version="opset1">
			<data element_type="f32" shape="240, 1, 1, 5, 5" offset="360656" size="24000" />
			<output>
				<port id="0" precision="FP32">
					<dim>240</dim>
					<dim>1</dim>
					<dim>1</dim>
					<dim>5</dim>
					<dim>5</dim>
				</port>
			</output>
		</layer>
		<layer id="118" name="Conv_123/WithoutBiases" type="GroupConvolution" version="opset1">
			<data strides="1, 1" pads_begin="2, 2" pads_end="2, 2" dilations="1, 1" auto_pad="explicit" />
			<input>
				<port id="0" precision="FP32">
					<dim>-1</dim>
					<dim>240</dim>
					<dim>7</dim>
					<dim>7</dim>
				</port>
				<port id="1" precision="FP32">
					<dim>240</dim>
					<dim>1</dim>
					<dim>1</dim>
					<dim>5</dim>
					<dim>5</dim>
				</port>
			</input>
			<output>
				<port id="2" precision="FP32">
					<dim>-1</dim>
					<dim>240</dim>
					<dim>7</dim>
					<dim>7</dim>
				</port>
			</output>
		</layer>
		<layer id="119" name="Reshape_36197" type="Const" version="opset1">
			<data element_type="f32" shape="1, 240, 1, 1" offset="384656" size="960" />
			<output>
				<port id="0" precision="FP32">
					<dim>1</dim>
					<dim>240</dim>
					<dim>1</dim>
					<dim>1</dim>
				</port>
			</output>
		</layer>
		<layer id="120" name="Conv_123" type="Add" version="opset1">
			<data auto_broadcast="numpy" />
			<input>
				<port id="0" precision="FP32">
					<dim>-1</dim>
					<dim>240</dim>
					<dim>7</dim>
					<dim>7</dim>
				</port>
				<port id="1" precision="FP32">
					<dim>1</dim>
					<dim>240</dim>
					<dim>1</dim>
					<dim>1</dim>
				</port>
			</input>
			<output>
				<port id="2" precision="FP32" names="405">
					<dim>-1</dim>
					<dim>240</dim>
					<dim>7</dim>
					<dim>7</dim>
				</port>
			</output>
		</layer>
		<layer id="121" name="Mul_132" type="HSwish" version="opset4">
			<input>
				<port id="0" precision="FP32">
					<dim>-1</dim>
					<dim>240</dim>
					<dim>7</dim>
					<dim>7</dim>
				</port>
			</input>
			<output>
				<port id="1" precision="FP32" names="413">
					<dim>-1</dim>
					<dim>240</dim>
					<dim>7</dim>
					<dim>7</dim>
				</port>
			</output>
		</layer>
		<layer id="122" name="Range_36210" type="Const" version="opset1">
			<data element_type="i64" shape="2" offset="2432" size="16" />
			<output>
				<port id="0" precision="I64">
					<dim>2</dim>
				</port>
			</output>
		</layer>
		<layer id="123" name="GlobalAveragePool_133" type="ReduceMean" version="opset1">
			<data keep_dims="true" />
			<input>
				<port id="0" precision="FP32">
					<dim>-1</dim>
					<dim>240</dim>
					<dim>7</dim>
					<dim>7</dim>
				</port>
				<port id="1" precision="I64">
					<dim>2</dim>
				</port>
			</input>
			<output>
				<port id="2" precision="FP32" names="414">
					<dim>-1</dim>
					<dim>240</dim>
					<dim>1</dim>
					<dim>1</dim>
				</port>
			</output>
		</layer>
		<layer id="124" name="blocks.2.2.se.conv_reduce.weight" type="Const" version="opset1">
			<data element_type="f32" shape="64, 240, 1, 1" offset="385616" size="61440" />
			<output>
				<port id="0" precision="FP32" names="blocks.2.2.se.conv_reduce.weight">
					<dim>64</dim>
					<dim>240</dim>
					<dim>1</dim>
					<dim>1</dim>
				</port>
			</output>
		</layer>
		<layer id="125" name="fused Conv_134/WithoutBiases" type="Convolution" version="opset1">
			<data strides="1, 1" dilations="1, 1" pads_begin="0, 0" pads_end="0, 0" auto_pad="explicit" />
			<input>
				<port id="0" precision="FP32">
					<dim>-1</dim>
					<dim>240</dim>
					<dim>1</dim>
					<dim>1</dim>
				</port>
				<port id="1" precision="FP32">
					<dim>64</dim>
					<dim>240</dim>
					<dim>1</dim>
					<dim>1</dim>
				</port>
			</input>
			<output>
				<port id="2" precision="FP32">
					<dim>-1</dim>
					<dim>64</dim>
					<dim>1</dim>
					<dim>1</dim>
				</port>
			</output>
		</layer>
		<layer id="126" name="Reshape_36225" type="Const" version="opset1">
			<data element_type="f32" shape="1, 64, 1, 1" offset="447056" size="256" />
			<output>
				<port id="0" precision="FP32">
					<dim>1</dim>
					<dim>64</dim>
					<dim>1</dim>
					<dim>1</dim>
				</port>
			</output>
		</layer>
		<layer id="127" name="Add_36226" type="Add" version="opset1">
			<data auto_broadcast="numpy" />
			<input>
				<port id="0" precision="FP32">
					<dim>-1</dim>
					<dim>64</dim>
					<dim>1</dim>
					<dim>1</dim>
				</port>
				<port id="1" precision="FP32">
					<dim>1</dim>
					<dim>64</dim>
					<dim>1</dim>
					<dim>1</dim>
				</port>
			</input>
			<output>
				<port id="2" precision="FP32">
					<dim>-1</dim>
					<dim>64</dim>
					<dim>1</dim>
					<dim>1</dim>
				</port>
			</output>
		</layer>
		<layer id="128" name="fused Conv_134" type="ReLU" version="opset1">
			<input>
				<port id="0" precision="FP32">
					<dim>-1</dim>
					<dim>64</dim>
					<dim>1</dim>
					<dim>1</dim>
				</port>
			</input>
			<output>
				<port id="1" precision="FP32" names="416">
					<dim>-1</dim>
					<dim>64</dim>
					<dim>1</dim>
					<dim>1</dim>
				</port>
			</output>
		</layer>
		<layer id="129" name="blocks.2.2.se.conv_expand.weight" type="Const" version="opset1">
			<data element_type="f32" shape="240, 64, 1, 1" offset="447312" size="61440" />
			<output>
				<port id="0" precision="FP32" names="blocks.2.2.se.conv_expand.weight">
					<dim>240</dim>
					<dim>64</dim>
					<dim>1</dim>
					<dim>1</dim>
				</port>
			</output>
		</layer>
		<layer id="130" name="Conv_136/WithoutBiases" type="Convolution" version="opset1">
			<data strides="1, 1" dilations="1, 1" pads_begin="0, 0" pads_end="0, 0" auto_pad="explicit" />
			<input>
				<port id="0" precision="FP32">
					<dim>-1</dim>
					<dim>64</dim>
					<dim>1</dim>
					<dim>1</dim>
				</port>
				<port id="1" precision="FP32">
					<dim>240</dim>
					<dim>64</dim>
					<dim>1</dim>
					<dim>1</dim>
				</port>
			</input>
			<output>
				<port id="2" precision="FP32">
					<dim>-1</dim>
					<dim>240</dim>
					<dim>1</dim>
					<dim>1</dim>
				</port>
			</output>
		</layer>
		<layer id="131" name="Reshape_36239" type="Const" version="opset1">
			<data element_type="f32" shape="1, 240, 1, 1" offset="508752" size="960" />
			<output>
				<port id="0" precision="FP32">
					<dim>1</dim>
					<dim>240</dim>
					<dim>1</dim>
					<dim>1</dim>
				</port>
			</output>
		</layer>
		<layer id="132" name="Conv_136" type="Add" version="opset1">
			<data auto_broadcast="numpy" />
			<input>
				<port id="0" precision="FP32">
					<dim>-1</dim>
					<dim>240</dim>
					<dim>1</dim>
					<dim>1</dim>
				</port>
				<port id="1" precision="FP32">
					<dim>1</dim>
					<dim>240</dim>
					<dim>1</dim>
					<dim>1</dim>
				</port>
			</input>
			<output>
				<port id="2" precision="FP32" names="417">
					<dim>-1</dim>
					<dim>240</dim>
					<dim>1</dim>
					<dim>1</dim>
				</port>
			</output>
		</layer>
		<layer id="133" name="Div_143" type="HSigmoid" version="opset5">
			<input>
				<port id="0" precision="FP32">
					<dim>-1</dim>
					<dim>240</dim>
					<dim>1</dim>
					<dim>1</dim>
				</port>
			</input>
			<output>
				<port id="1" precision="FP32" names="424">
					<dim>-1</dim>
					<dim>240</dim>
					<dim>1</dim>
					<dim>1</dim>
				</port>
			</output>
		</layer>
		<layer id="134" name="Mul_144" type="Multiply" version="opset1">
			<data auto_broadcast="numpy" />
			<input>
				<port id="0" precision="FP32">
					<dim>-1</dim>
					<dim>240</dim>
					<dim>7</dim>
					<dim>7</dim>
				</port>
				<port id="1" precision="FP32">
					<dim>-1</dim>
					<dim>240</dim>
					<dim>1</dim>
					<dim>1</dim>
				</port>
			</input>
			<output>
				<port id="2" precision="FP32" names="425">
					<dim>-1</dim>
					<dim>240</dim>
					<dim>7</dim>
					<dim>7</dim>
				</port>
			</output>
		</layer>
		<layer id="135" name="ConvBnFusion_W_blocks.2.2.conv_pwl.weight" type="Const" version="opset1">
			<data element_type="f32" shape="40, 240, 1, 1" offset="509712" size="38400" />
			<output>
				<port id="0" precision="FP32" names="ConvBnFusion_W_blocks.2.2.conv_pwl.weight">
					<dim>40</dim>
					<dim>240</dim>
					<dim>1</dim>
					<dim>1</dim>
				</port>
			</output>
		</layer>
		<layer id="136" name="Conv_145/WithoutBiases" type="Convolution" version="opset1">
			<data strides="1, 1" dilations="1, 1" pads_begin="0, 0" pads_end="0, 0" auto_pad="explicit" />
			<input>
				<port id="0" precision="FP32">
					<dim>-1</dim>
					<dim>240</dim>
					<dim>7</dim>
					<dim>7</dim>
				</port>
				<port id="1" precision="FP32">
					<dim>40</dim>
					<dim>240</dim>
					<dim>1</dim>
					<dim>1</dim>
				</port>
			</input>
			<output>
				<port id="2" precision="FP32">
					<dim>-1</dim>
					<dim>40</dim>
					<dim>7</dim>
					<dim>7</dim>
				</port>
			</output>
		</layer>
		<layer id="137" name="Reshape_36257" type="Const" version="opset1">
			<data element_type="f32" shape="1, 40, 1, 1" offset="548112" size="160" />
			<output>
				<port id="0" precision="FP32">
					<dim>1</dim>
					<dim>40</dim>
					<dim>1</dim>
					<dim>1</dim>
				</port>
			</output>
		</layer>
		<layer id="138" name="Conv_145" type="Add" version="opset1">
			<data auto_broadcast="numpy" />
			<input>
				<port id="0" precision="FP32">
					<dim>-1</dim>
					<dim>40</dim>
					<dim>7</dim>
					<dim>7</dim>
				</port>
				<port id="1" precision="FP32">
					<dim>1</dim>
					<dim>40</dim>
					<dim>1</dim>
					<dim>1</dim>
				</port>
			</input>
			<output>
				<port id="2" precision="FP32" names="427">
					<dim>-1</dim>
					<dim>40</dim>
					<dim>7</dim>
					<dim>7</dim>
				</port>
			</output>
		</layer>
		<layer id="139" name="Add_147" type="Add" version="opset1">
			<data auto_broadcast="numpy" />
			<input>
				<port id="0" precision="FP32">
					<dim>-1</dim>
					<dim>40</dim>
					<dim>7</dim>
					<dim>7</dim>
				</port>
				<port id="1" precision="FP32">
					<dim>-1</dim>
					<dim>40</dim>
					<dim>7</dim>
					<dim>7</dim>
				</port>
			</input>
			<output>
				<port id="2" precision="FP32" names="428">
					<dim>-1</dim>
					<dim>40</dim>
					<dim>7</dim>
					<dim>7</dim>
				</port>
			</output>
		</layer>
		<layer id="140" name="ConvBnFusion_W_blocks.3.0.conv_pw.weight" type="Const" version="opset1">
			<data element_type="f32" shape="120, 40, 1, 1" offset="548272" size="19200" />
			<output>
				<port id="0" precision="FP32" names="ConvBnFusion_W_blocks.3.0.conv_pw.weight">
					<dim>120</dim>
					<dim>40</dim>
					<dim>1</dim>
					<dim>1</dim>
				</port>
			</output>
		</layer>
		<layer id="141" name="Conv_148/WithoutBiases" type="Convolution" version="opset1">
			<data strides="1, 1" dilations="1, 1" pads_begin="0, 0" pads_end="0, 0" auto_pad="explicit" />
			<input>
				<port id="0" precision="FP32">
					<dim>-1</dim>
					<dim>40</dim>
					<dim>7</dim>
					<dim>7</dim>
				</port>
				<port id="1" precision="FP32">
					<dim>120</dim>
					<dim>40</dim>
					<dim>1</dim>
					<dim>1</dim>
				</port>
			</input>
			<output>
				<port id="2" precision="FP32">
					<dim>-1</dim>
					<dim>120</dim>
					<dim>7</dim>
					<dim>7</dim>
				</port>
			</output>
		</layer>
		<layer id="142" name="Reshape_36271" type="Const" version="opset1">
			<data element_type="f32" shape="1, 120, 1, 1" offset="567472" size="480" />
			<output>
				<port id="0" precision="FP32">
					<dim>1</dim>
					<dim>120</dim>
					<dim>1</dim>
					<dim>1</dim>
				</port>
			</output>
		</layer>
		<layer id="143" name="Conv_148" type="Add" version="opset1">
			<data auto_broadcast="numpy" />
			<input>
				<port id="0" precision="FP32">
					<dim>-1</dim>
					<dim>120</dim>
					<dim>7</dim>
					<dim>7</dim>
				</port>
				<port id="1" precision="FP32">
					<dim>1</dim>
					<dim>120</dim>
					<dim>1</dim>
					<dim>1</dim>
				</port>
			</input>
			<output>
				<port id="2" precision="FP32" names="430">
					<dim>-1</dim>
					<dim>120</dim>
					<dim>7</dim>
					<dim>7</dim>
				</port>
			</output>
		</layer>
		<layer id="144" name="Mul_157" type="HSwish" version="opset4">
			<input>
				<port id="0" precision="FP32">
					<dim>-1</dim>
					<dim>120</dim>
					<dim>7</dim>
					<dim>7</dim>
				</port>
			</input>
			<output>
				<port id="1" precision="FP32" names="438">
					<dim>-1</dim>
					<dim>120</dim>
					<dim>7</dim>
					<dim>7</dim>
				</port>
			</output>
		</layer>
		<layer id="145" name="Reshape_36285" type="Const" version="opset1">
			<data element_type="f32" shape="120, 1, 1, 5, 5" offset="567952" size="12000" />
			<output>
				<port id="0" precision="FP32">
					<dim>120</dim>
					<dim>1</dim>
					<dim>1</dim>
					<dim>5</dim>
					<dim>5</dim>
				</port>
			</output>
		</layer>
		<layer id="146" name="Conv_158/WithoutBiases" type="GroupConvolution" version="opset1">
			<data strides="1, 1" pads_begin="2, 2" pads_end="2, 2" dilations="1, 1" auto_pad="explicit" />
			<input>
				<port id="0" precision="FP32">
					<dim>-1</dim>
					<dim>120</dim>
					<dim>7</dim>
					<dim>7</dim>
				</port>
				<port id="1" precision="FP32">
					<dim>120</dim>
					<dim>1</dim>
					<dim>1</dim>
					<dim>5</dim>
					<dim>5</dim>
				</port>
			</input>
			<output>
				<port id="2" precision="FP32">
					<dim>-1</dim>
					<dim>120</dim>
					<dim>7</dim>
					<dim>7</dim>
				</port>
			</output>
		</layer>
		<layer id="147" name="Reshape_36335" type="Const" version="opset1">
			<data element_type="f32" shape="1, 120, 1, 1" offset="579952" size="480" />
			<output>
				<port id="0" precision="FP32">
					<dim>1</dim>
					<dim>120</dim>
					<dim>1</dim>
					<dim>1</dim>
				</port>
			</output>
		</layer>
		<layer id="148" name="Conv_158" type="Add" version="opset1">
			<data auto_broadcast="numpy" />
			<input>
				<port id="0" precision="FP32">
					<dim>-1</dim>
					<dim>120</dim>
					<dim>7</dim>
					<dim>7</dim>
				</port>
				<port id="1" precision="FP32">
					<dim>1</dim>
					<dim>120</dim>
					<dim>1</dim>
					<dim>1</dim>
				</port>
			</input>
			<output>
				<port id="2" precision="FP32" names="440">
					<dim>-1</dim>
					<dim>120</dim>
					<dim>7</dim>
					<dim>7</dim>
				</port>
			</output>
		</layer>
		<layer id="149" name="Mul_167" type="HSwish" version="opset4">
			<input>
				<port id="0" precision="FP32">
					<dim>-1</dim>
					<dim>120</dim>
					<dim>7</dim>
					<dim>7</dim>
				</port>
			</input>
			<output>
				<port id="1" precision="FP32" names="448">
					<dim>-1</dim>
					<dim>120</dim>
					<dim>7</dim>
					<dim>7</dim>
				</port>
			</output>
		</layer>
		<layer id="150" name="Range_36348" type="Const" version="opset1">
			<data element_type="i64" shape="2" offset="2432" size="16" />
			<output>
				<port id="0" precision="I64">
					<dim>2</dim>
				</port>
			</output>
		</layer>
		<layer id="151" name="GlobalAveragePool_168" type="ReduceMean" version="opset1">
			<data keep_dims="true" />
			<input>
				<port id="0" precision="FP32">
					<dim>-1</dim>
					<dim>120</dim>
					<dim>7</dim>
					<dim>7</dim>
				</port>
				<port id="1" precision="I64">
					<dim>2</dim>
				</port>
			</input>
			<output>
				<port id="2" precision="FP32" names="449">
					<dim>-1</dim>
					<dim>120</dim>
					<dim>1</dim>
					<dim>1</dim>
				</port>
			</output>
		</layer>
		<layer id="152" name="blocks.3.0.se.conv_reduce.weight" type="Const" version="opset1">
			<data element_type="f32" shape="32, 120, 1, 1" offset="580432" size="15360" />
			<output>
				<port id="0" precision="FP32" names="blocks.3.0.se.conv_reduce.weight">
					<dim>32</dim>
					<dim>120</dim>
					<dim>1</dim>
					<dim>1</dim>
				</port>
			</output>
		</layer>
		<layer id="153" name="fused Conv_169/WithoutBiases" type="Convolution" version="opset1">
			<data strides="1, 1" dilations="1, 1" pads_begin="0, 0" pads_end="0, 0" auto_pad="explicit" />
			<input>
				<port id="0" precision="FP32">
					<dim>-1</dim>
					<dim>120</dim>
					<dim>1</dim>
					<dim>1</dim>
				</port>
				<port id="1" precision="FP32">
					<dim>32</dim>
					<dim>120</dim>
					<dim>1</dim>
					<dim>1</dim>
				</port>
			</input>
			<output>
				<port id="2" precision="FP32">
					<dim>-1</dim>
					<dim>32</dim>
					<dim>1</dim>
					<dim>1</dim>
				</port>
			</output>
		</layer>
		<layer id="154" name="Reshape_36363" type="Const" version="opset1">
			<data element_type="f32" shape="1, 32, 1, 1" offset="595792" size="128" />
			<output>
				<port id="0" precision="FP32">
					<dim>1</dim>
					<dim>32</dim>
					<dim>1</dim>
					<dim>1</dim>
				</port>
			</output>
		</layer>
		<layer id="155" name="Add_36364" type="Add" version="opset1">
			<data auto_broadcast="numpy" />
			<input>
				<port id="0" precision="FP32">
					<dim>-1</dim>
					<dim>32</dim>
					<dim>1</dim>
					<dim>1</dim>
				</port>
				<port id="1" precision="FP32">
					<dim>1</dim>
					<dim>32</dim>
					<dim>1</dim>
					<dim>1</dim>
				</port>
			</input>
			<output>
				<port id="2" precision="FP32">
					<dim>-1</dim>
					<dim>32</dim>
					<dim>1</dim>
					<dim>1</dim>
				</port>
			</output>
		</layer>
		<layer id="156" name="fused Conv_169" type="ReLU" version="opset1">
			<input>
				<port id="0" precision="FP32">
					<dim>-1</dim>
					<dim>32</dim>
					<dim>1</dim>
					<dim>1</dim>
				</port>
			</input>
			<output>
				<port id="1" precision="FP32" names="451">
					<dim>-1</dim>
					<dim>32</dim>
					<dim>1</dim>
					<dim>1</dim>
				</port>
			</output>
		</layer>
		<layer id="157" name="blocks.3.0.se.conv_expand.weight" type="Const" version="opset1">
			<data element_type="f32" shape="120, 32, 1, 1" offset="595920" size="15360" />
			<output>
				<port id="0" precision="FP32" names="blocks.3.0.se.conv_expand.weight">
					<dim>120</dim>
					<dim>32</dim>
					<dim>1</dim>
					<dim>1</dim>
				</port>
			</output>
		</layer>
		<layer id="158" name="Conv_171/WithoutBiases" type="Convolution" version="opset1">
			<data strides="1, 1" dilations="1, 1" pads_begin="0, 0" pads_end="0, 0" auto_pad="explicit" />
			<input>
				<port id="0" precision="FP32">
					<dim>-1</dim>
					<dim>32</dim>
					<dim>1</dim>
					<dim>1</dim>
				</port>
				<port id="1" precision="FP32">
					<dim>120</dim>
					<dim>32</dim>
					<dim>1</dim>
					<dim>1</dim>
				</port>
			</input>
			<output>
				<port id="2" precision="FP32">
					<dim>-1</dim>
					<dim>120</dim>
					<dim>1</dim>
					<dim>1</dim>
				</port>
			</output>
		</layer>
		<layer id="159" name="Reshape_36377" type="Const" version="opset1">
			<data element_type="f32" shape="1, 120, 1, 1" offset="611280" size="480" />
			<output>
				<port id="0" precision="FP32">
					<dim>1</dim>
					<dim>120</dim>
					<dim>1</dim>
					<dim>1</dim>
				</port>
			</output>
		</layer>
		<layer id="160" name="Conv_171" type="Add" version="opset1">
			<data auto_broadcast="numpy" />
			<input>
				<port id="0" precision="FP32">
					<dim>-1</dim>
					<dim>120</dim>
					<dim>1</dim>
					<dim>1</dim>
				</port>
				<port id="1" precision="FP32">
					<dim>1</dim>
					<dim>120</dim>
					<dim>1</dim>
					<dim>1</dim>
				</port>
			</input>
			<output>
				<port id="2" precision="FP32" names="452">
					<dim>-1</dim>
					<dim>120</dim>
					<dim>1</dim>
					<dim>1</dim>
				</port>
			</output>
		</layer>
		<layer id="161" name="Div_178" type="HSigmoid" version="opset5">
			<input>
				<port id="0" precision="FP32">
					<dim>-1</dim>
					<dim>120</dim>
					<dim>1</dim>
					<dim>1</dim>
				</port>
			</input>
			<output>
				<port id="1" precision="FP32" names="459">
					<dim>-1</dim>
					<dim>120</dim>
					<dim>1</dim>
					<dim>1</dim>
				</port>
			</output>
		</layer>
		<layer id="162" name="Mul_179" type="Multiply" version="opset1">
			<data auto_broadcast="numpy" />
			<input>
				<port id="0" precision="FP32">
					<dim>-1</dim>
					<dim>120</dim>
					<dim>7</dim>
					<dim>7</dim>
				</port>
				<port id="1" precision="FP32">
					<dim>-1</dim>
					<dim>120</dim>
					<dim>1</dim>
					<dim>1</dim>
				</port>
			</input>
			<output>
				<port id="2" precision="FP32" names="460">
					<dim>-1</dim>
					<dim>120</dim>
					<dim>7</dim>
					<dim>7</dim>
				</port>
			</output>
		</layer>
		<layer id="163" name="ConvBnFusion_W_blocks.3.0.conv_pwl.weight" type="Const" version="opset1">
			<data element_type="f32" shape="48, 120, 1, 1" offset="611760" size="23040" />
			<output>
				<port id="0" precision="FP32" names="ConvBnFusion_W_blocks.3.0.conv_pwl.weight">
					<dim>48</dim>
					<dim>120</dim>
					<dim>1</dim>
					<dim>1</dim>
				</port>
			</output>
		</layer>
		<layer id="164" name="Conv_180/WithoutBiases" type="Convolution" version="opset1">
			<data strides="1, 1" dilations="1, 1" pads_begin="0, 0" pads_end="0, 0" auto_pad="explicit" />
			<input>
				<port id="0" precision="FP32">
					<dim>-1</dim>
					<dim>120</dim>
					<dim>7</dim>
					<dim>7</dim>
				</port>
				<port id="1" precision="FP32">
					<dim>48</dim>
					<dim>120</dim>
					<dim>1</dim>
					<dim>1</dim>
				</port>
			</input>
			<output>
				<port id="2" precision="FP32">
					<dim>-1</dim>
					<dim>48</dim>
					<dim>7</dim>
					<dim>7</dim>
				</port>
			</output>
		</layer>
		<layer id="165" name="Reshape_36395" type="Const" version="opset1">
			<data element_type="f32" shape="1, 48, 1, 1" offset="634800" size="192" />
			<output>
				<port id="0" precision="FP32">
					<dim>1</dim>
					<dim>48</dim>
					<dim>1</dim>
					<dim>1</dim>
				</port>
			</output>
		</layer>
		<layer id="166" name="Conv_180" type="Add" version="opset1">
			<data auto_broadcast="numpy" />
			<input>
				<port id="0" precision="FP32">
					<dim>-1</dim>
					<dim>48</dim>
					<dim>7</dim>
					<dim>7</dim>
				</port>
				<port id="1" precision="FP32">
					<dim>1</dim>
					<dim>48</dim>
					<dim>1</dim>
					<dim>1</dim>
				</port>
			</input>
			<output>
				<port id="2" precision="FP32" names="462">
					<dim>-1</dim>
					<dim>48</dim>
					<dim>7</dim>
					<dim>7</dim>
				</port>
			</output>
		</layer>
		<layer id="167" name="ConvBnFusion_W_blocks.3.1.conv_pw.weight" type="Const" version="opset1">
			<data element_type="f32" shape="144, 48, 1, 1" offset="634992" size="27648" />
			<output>
				<port id="0" precision="FP32" names="ConvBnFusion_W_blocks.3.1.conv_pw.weight">
					<dim>144</dim>
					<dim>48</dim>
					<dim>1</dim>
					<dim>1</dim>
				</port>
			</output>
		</layer>
		<layer id="168" name="Conv_182/WithoutBiases" type="Convolution" version="opset1">
			<data strides="1, 1" dilations="1, 1" pads_begin="0, 0" pads_end="0, 0" auto_pad="explicit" />
			<input>
				<port id="0" precision="FP32">
					<dim>-1</dim>
					<dim>48</dim>
					<dim>7</dim>
					<dim>7</dim>
				</port>
				<port id="1" precision="FP32">
					<dim>144</dim>
					<dim>48</dim>
					<dim>1</dim>
					<dim>1</dim>
				</port>
			</input>
			<output>
				<port id="2" precision="FP32">
					<dim>-1</dim>
					<dim>144</dim>
					<dim>7</dim>
					<dim>7</dim>
				</port>
			</output>
		</layer>
		<layer id="169" name="Reshape_36408" type="Const" version="opset1">
			<data element_type="f32" shape="1, 144, 1, 1" offset="662640" size="576" />
			<output>
				<port id="0" precision="FP32">
					<dim>1</dim>
					<dim>144</dim>
					<dim>1</dim>
					<dim>1</dim>
				</port>
			</output>
		</layer>
		<layer id="170" name="Conv_182" type="Add" version="opset1">
			<data auto_broadcast="numpy" />
			<input>
				<port id="0" precision="FP32">
					<dim>-1</dim>
					<dim>144</dim>
					<dim>7</dim>
					<dim>7</dim>
				</port>
				<port id="1" precision="FP32">
					<dim>1</dim>
					<dim>144</dim>
					<dim>1</dim>
					<dim>1</dim>
				</port>
			</input>
			<output>
				<port id="2" precision="FP32" names="464">
					<dim>-1</dim>
					<dim>144</dim>
					<dim>7</dim>
					<dim>7</dim>
				</port>
			</output>
		</layer>
		<layer id="171" name="Mul_191" type="HSwish" version="opset4">
			<input>
				<port id="0" precision="FP32">
					<dim>-1</dim>
					<dim>144</dim>
					<dim>7</dim>
					<dim>7</dim>
				</port>
			</input>
			<output>
				<port id="1" precision="FP32" names="472">
					<dim>-1</dim>
					<dim>144</dim>
					<dim>7</dim>
					<dim>7</dim>
				</port>
			</output>
		</layer>
		<layer id="172" name="Reshape_36422" type="Const" version="opset1">
			<data element_type="f32" shape="144, 1, 1, 5, 5" offset="663216" size="14400" />
			<output>
				<port id="0" precision="FP32">
					<dim>144</dim>
					<dim>1</dim>
					<dim>1</dim>
					<dim>5</dim>
					<dim>5</dim>
				</port>
			</output>
		</layer>
		<layer id="173" name="Conv_192/WithoutBiases" type="GroupConvolution" version="opset1">
			<data strides="1, 1" pads_begin="2, 2" pads_end="2, 2" dilations="1, 1" auto_pad="explicit" />
			<input>
				<port id="0" precision="FP32">
					<dim>-1</dim>
					<dim>144</dim>
					<dim>7</dim>
					<dim>7</dim>
				</port>
				<port id="1" precision="FP32">
					<dim>144</dim>
					<dim>1</dim>
					<dim>1</dim>
					<dim>5</dim>
					<dim>5</dim>
				</port>
			</input>
			<output>
				<port id="2" precision="FP32">
					<dim>-1</dim>
					<dim>144</dim>
					<dim>7</dim>
					<dim>7</dim>
				</port>
			</output>
		</layer>
		<layer id="174" name="Reshape_36472" type="Const" version="opset1">
			<data element_type="f32" shape="1, 144, 1, 1" offset="677616" size="576" />
			<output>
				<port id="0" precision="FP32">
					<dim>1</dim>
					<dim>144</dim>
					<dim>1</dim>
					<dim>1</dim>
				</port>
			</output>
		</layer>
		<layer id="175" name="Conv_192" type="Add" version="opset1">
			<data auto_broadcast="numpy" />
			<input>
				<port id="0" precision="FP32">
					<dim>-1</dim>
					<dim>144</dim>
					<dim>7</dim>
					<dim>7</dim>
				</port>
				<port id="1" precision="FP32">
					<dim>1</dim>
					<dim>144</dim>
					<dim>1</dim>
					<dim>1</dim>
				</port>
			</input>
			<output>
				<port id="2" precision="FP32" names="474">
					<dim>-1</dim>
					<dim>144</dim>
					<dim>7</dim>
					<dim>7</dim>
				</port>
			</output>
		</layer>
		<layer id="176" name="Mul_201" type="HSwish" version="opset4">
			<input>
				<port id="0" precision="FP32">
					<dim>-1</dim>
					<dim>144</dim>
					<dim>7</dim>
					<dim>7</dim>
				</port>
			</input>
			<output>
				<port id="1" precision="FP32" names="482">
					<dim>-1</dim>
					<dim>144</dim>
					<dim>7</dim>
					<dim>7</dim>
				</port>
			</output>
		</layer>
		<layer id="177" name="Range_36485" type="Const" version="opset1">
			<data element_type="i64" shape="2" offset="2432" size="16" />
			<output>
				<port id="0" precision="I64">
					<dim>2</dim>
				</port>
			</output>
		</layer>
		<layer id="178" name="GlobalAveragePool_202" type="ReduceMean" version="opset1">
			<data keep_dims="true" />
			<input>
				<port id="0" precision="FP32">
					<dim>-1</dim>
					<dim>144</dim>
					<dim>7</dim>
					<dim>7</dim>
				</port>
				<port id="1" precision="I64">
					<dim>2</dim>
				</port>
			</input>
			<output>
				<port id="2" precision="FP32" names="483">
					<dim>-1</dim>
					<dim>144</dim>
					<dim>1</dim>
					<dim>1</dim>
				</port>
			</output>
		</layer>
		<layer id="179" name="blocks.3.1.se.conv_reduce.weight" type="Const" version="opset1">
			<data element_type="f32" shape="40, 144, 1, 1" offset="678192" size="23040" />
			<output>
				<port id="0" precision="FP32" names="blocks.3.1.se.conv_reduce.weight">
					<dim>40</dim>
					<dim>144</dim>
					<dim>1</dim>
					<dim>1</dim>
				</port>
			</output>
		</layer>
		<layer id="180" name="fused Conv_203/WithoutBiases" type="Convolution" version="opset1">
			<data strides="1, 1" dilations="1, 1" pads_begin="0, 0" pads_end="0, 0" auto_pad="explicit" />
			<input>
				<port id="0" precision="FP32">
					<dim>-1</dim>
					<dim>144</dim>
					<dim>1</dim>
					<dim>1</dim>
				</port>
				<port id="1" precision="FP32">
					<dim>40</dim>
					<dim>144</dim>
					<dim>1</dim>
					<dim>1</dim>
				</port>
			</input>
			<output>
				<port id="2" precision="FP32">
					<dim>-1</dim>
					<dim>40</dim>
					<dim>1</dim>
					<dim>1</dim>
				</port>
			</output>
		</layer>
		<layer id="181" name="Reshape_36500" type="Const" version="opset1">
			<data element_type="f32" shape="1, 40, 1, 1" offset="701232" size="160" />
			<output>
				<port id="0" precision="FP32">
					<dim>1</dim>
					<dim>40</dim>
					<dim>1</dim>
					<dim>1</dim>
				</port>
			</output>
		</layer>
		<layer id="182" name="Add_36501" type="Add" version="opset1">
			<data auto_broadcast="numpy" />
			<input>
				<port id="0" precision="FP32">
					<dim>-1</dim>
					<dim>40</dim>
					<dim>1</dim>
					<dim>1</dim>
				</port>
				<port id="1" precision="FP32">
					<dim>1</dim>
					<dim>40</dim>
					<dim>1</dim>
					<dim>1</dim>
				</port>
			</input>
			<output>
				<port id="2" precision="FP32">
					<dim>-1</dim>
					<dim>40</dim>
					<dim>1</dim>
					<dim>1</dim>
				</port>
			</output>
		</layer>
		<layer id="183" name="fused Conv_203" type="ReLU" version="opset1">
			<input>
				<port id="0" precision="FP32">
					<dim>-1</dim>
					<dim>40</dim>
					<dim>1</dim>
					<dim>1</dim>
				</port>
			</input>
			<output>
				<port id="1" precision="FP32" names="485">
					<dim>-1</dim>
					<dim>40</dim>
					<dim>1</dim>
					<dim>1</dim>
				</port>
			</output>
		</layer>
		<layer id="184" name="blocks.3.1.se.conv_expand.weight" type="Const" version="opset1">
			<data element_type="f32" shape="144, 40, 1, 1" offset="701392" size="23040" />
			<output>
				<port id="0" precision="FP32" names="blocks.3.1.se.conv_expand.weight">
					<dim>144</dim>
					<dim>40</dim>
					<dim>1</dim>
					<dim>1</dim>
				</port>
			</output>
		</layer>
		<layer id="185" name="Conv_205/WithoutBiases" type="Convolution" version="opset1">
			<data strides="1, 1" dilations="1, 1" pads_begin="0, 0" pads_end="0, 0" auto_pad="explicit" />
			<input>
				<port id="0" precision="FP32">
					<dim>-1</dim>
					<dim>40</dim>
					<dim>1</dim>
					<dim>1</dim>
				</port>
				<port id="1" precision="FP32">
					<dim>144</dim>
					<dim>40</dim>
					<dim>1</dim>
					<dim>1</dim>
				</port>
			</input>
			<output>
				<port id="2" precision="FP32">
					<dim>-1</dim>
					<dim>144</dim>
					<dim>1</dim>
					<dim>1</dim>
				</port>
			</output>
		</layer>
		<layer id="186" name="Reshape_36514" type="Const" version="opset1">
			<data element_type="f32" shape="1, 144, 1, 1" offset="724432" size="576" />
			<output>
				<port id="0" precision="FP32">
					<dim>1</dim>
					<dim>144</dim>
					<dim>1</dim>
					<dim>1</dim>
				</port>
			</output>
		</layer>
		<layer id="187" name="Conv_205" type="Add" version="opset1">
			<data auto_broadcast="numpy" />
			<input>
				<port id="0" precision="FP32">
					<dim>-1</dim>
					<dim>144</dim>
					<dim>1</dim>
					<dim>1</dim>
				</port>
				<port id="1" precision="FP32">
					<dim>1</dim>
					<dim>144</dim>
					<dim>1</dim>
					<dim>1</dim>
				</port>
			</input>
			<output>
				<port id="2" precision="FP32" names="486">
					<dim>-1</dim>
					<dim>144</dim>
					<dim>1</dim>
					<dim>1</dim>
				</port>
			</output>
		</layer>
		<layer id="188" name="Div_212" type="HSigmoid" version="opset5">
			<input>
				<port id="0" precision="FP32">
					<dim>-1</dim>
					<dim>144</dim>
					<dim>1</dim>
					<dim>1</dim>
				</port>
			</input>
			<output>
				<port id="1" precision="FP32" names="493">
					<dim>-1</dim>
					<dim>144</dim>
					<dim>1</dim>
					<dim>1</dim>
				</port>
			</output>
		</layer>
		<layer id="189" name="Mul_213" type="Multiply" version="opset1">
			<data auto_broadcast="numpy" />
			<input>
				<port id="0" precision="FP32">
					<dim>-1</dim>
					<dim>144</dim>
					<dim>7</dim>
					<dim>7</dim>
				</port>
				<port id="1" precision="FP32">
					<dim>-1</dim>
					<dim>144</dim>
					<dim>1</dim>
					<dim>1</dim>
				</port>
			</input>
			<output>
				<port id="2" precision="FP32" names="494">
					<dim>-1</dim>
					<dim>144</dim>
					<dim>7</dim>
					<dim>7</dim>
				</port>
			</output>
		</layer>
		<layer id="190" name="ConvBnFusion_W_blocks.3.1.conv_pwl.weight" type="Const" version="opset1">
			<data element_type="f32" shape="48, 144, 1, 1" offset="725008" size="27648" />
			<output>
				<port id="0" precision="FP32" names="ConvBnFusion_W_blocks.3.1.conv_pwl.weight">
					<dim>48</dim>
					<dim>144</dim>
					<dim>1</dim>
					<dim>1</dim>
				</port>
			</output>
		</layer>
		<layer id="191" name="Conv_214/WithoutBiases" type="Convolution" version="opset1">
			<data strides="1, 1" dilations="1, 1" pads_begin="0, 0" pads_end="0, 0" auto_pad="explicit" />
			<input>
				<port id="0" precision="FP32">
					<dim>-1</dim>
					<dim>144</dim>
					<dim>7</dim>
					<dim>7</dim>
				</port>
				<port id="1" precision="FP32">
					<dim>48</dim>
					<dim>144</dim>
					<dim>1</dim>
					<dim>1</dim>
				</port>
			</input>
			<output>
				<port id="2" precision="FP32">
					<dim>-1</dim>
					<dim>48</dim>
					<dim>7</dim>
					<dim>7</dim>
				</port>
			</output>
		</layer>
		<layer id="192" name="Reshape_36532" type="Const" version="opset1">
			<data element_type="f32" shape="1, 48, 1, 1" offset="752656" size="192" />
			<output>
				<port id="0" precision="FP32">
					<dim>1</dim>
					<dim>48</dim>
					<dim>1</dim>
					<dim>1</dim>
				</port>
			</output>
		</layer>
		<layer id="193" name="Conv_214" type="Add" version="opset1">
			<data auto_broadcast="numpy" />
			<input>
				<port id="0" precision="FP32">
					<dim>-1</dim>
					<dim>48</dim>
					<dim>7</dim>
					<dim>7</dim>
				</port>
				<port id="1" precision="FP32">
					<dim>1</dim>
					<dim>48</dim>
					<dim>1</dim>
					<dim>1</dim>
				</port>
			</input>
			<output>
				<port id="2" precision="FP32" names="496">
					<dim>-1</dim>
					<dim>48</dim>
					<dim>7</dim>
					<dim>7</dim>
				</port>
			</output>
		</layer>
		<layer id="194" name="Add_216" type="Add" version="opset1">
			<data auto_broadcast="numpy" />
			<input>
				<port id="0" precision="FP32">
					<dim>-1</dim>
					<dim>48</dim>
					<dim>7</dim>
					<dim>7</dim>
				</port>
				<port id="1" precision="FP32">
					<dim>-1</dim>
					<dim>48</dim>
					<dim>7</dim>
					<dim>7</dim>
				</port>
			</input>
			<output>
				<port id="2" precision="FP32" names="497">
					<dim>-1</dim>
					<dim>48</dim>
					<dim>7</dim>
					<dim>7</dim>
				</port>
			</output>
		</layer>
		<layer id="195" name="ConvBnFusion_W_blocks.4.0.conv_pw.weight" type="Const" version="opset1">
			<data element_type="f32" shape="288, 48, 1, 1" offset="752848" size="55296" />
			<output>
				<port id="0" precision="FP32" names="ConvBnFusion_W_blocks.4.0.conv_pw.weight">
					<dim>288</dim>
					<dim>48</dim>
					<dim>1</dim>
					<dim>1</dim>
				</port>
			</output>
		</layer>
		<layer id="196" name="Conv_217/WithoutBiases" type="Convolution" version="opset1">
			<data strides="1, 1" dilations="1, 1" pads_begin="0, 0" pads_end="0, 0" auto_pad="explicit" />
			<input>
				<port id="0" precision="FP32">
					<dim>-1</dim>
					<dim>48</dim>
					<dim>7</dim>
					<dim>7</dim>
				</port>
				<port id="1" precision="FP32">
					<dim>288</dim>
					<dim>48</dim>
					<dim>1</dim>
					<dim>1</dim>
				</port>
			</input>
			<output>
				<port id="2" precision="FP32">
					<dim>-1</dim>
					<dim>288</dim>
					<dim>7</dim>
					<dim>7</dim>
				</port>
			</output>
		</layer>
		<layer id="197" name="Reshape_36546" type="Const" version="opset1">
			<data element_type="f32" shape="1, 288, 1, 1" offset="808144" size="1152" />
			<output>
				<port id="0" precision="FP32">
					<dim>1</dim>
					<dim>288</dim>
					<dim>1</dim>
					<dim>1</dim>
				</port>
			</output>
		</layer>
		<layer id="198" name="Conv_217" type="Add" version="opset1">
			<data auto_broadcast="numpy" />
			<input>
				<port id="0" precision="FP32">
					<dim>-1</dim>
					<dim>288</dim>
					<dim>7</dim>
					<dim>7</dim>
				</port>
				<port id="1" precision="FP32">
					<dim>1</dim>
					<dim>288</dim>
					<dim>1</dim>
					<dim>1</dim>
				</port>
			</input>
			<output>
				<port id="2" precision="FP32" names="499">
					<dim>-1</dim>
					<dim>288</dim>
					<dim>7</dim>
					<dim>7</dim>
				</port>
			</output>
		</layer>
		<layer id="199" name="Mul_226" type="HSwish" version="opset4">
			<input>
				<port id="0" precision="FP32">
					<dim>-1</dim>
					<dim>288</dim>
					<dim>7</dim>
					<dim>7</dim>
				</port>
			</input>
			<output>
				<port id="1" precision="FP32" names="507">
					<dim>-1</dim>
					<dim>288</dim>
					<dim>7</dim>
					<dim>7</dim>
				</port>
			</output>
		</layer>
		<layer id="200" name="Reshape_36560" type="Const" version="opset1">
			<data element_type="f32" shape="288, 1, 1, 5, 5" offset="809296" size="28800" />
			<output>
				<port id="0" precision="FP32">
					<dim>288</dim>
					<dim>1</dim>
					<dim>1</dim>
					<dim>5</dim>
					<dim>5</dim>
				</port>
			</output>
		</layer>
		<layer id="201" name="Conv_227/WithoutBiases" type="GroupConvolution" version="opset1">
			<data strides="2, 2" pads_begin="2, 2" pads_end="2, 2" dilations="1, 1" auto_pad="explicit" />
			<input>
				<port id="0" precision="FP32">
					<dim>-1</dim>
					<dim>288</dim>
					<dim>7</dim>
					<dim>7</dim>
				</port>
				<port id="1" precision="FP32">
					<dim>288</dim>
					<dim>1</dim>
					<dim>1</dim>
					<dim>5</dim>
					<dim>5</dim>
				</port>
			</input>
			<output>
				<port id="2" precision="FP32">
					<dim>-1</dim>
					<dim>288</dim>
					<dim>4</dim>
					<dim>4</dim>
				</port>
			</output>
		</layer>
		<layer id="202" name="Reshape_36610" type="Const" version="opset1">
			<data element_type="f32" shape="1, 288, 1, 1" offset="838096" size="1152" />
			<output>
				<port id="0" precision="FP32">
					<dim>1</dim>
					<dim>288</dim>
					<dim>1</dim>
					<dim>1</dim>
				</port>
			</output>
		</layer>
		<layer id="203" name="Conv_227" type="Add" version="opset1">
			<data auto_broadcast="numpy" />
			<input>
				<port id="0" precision="FP32">
					<dim>-1</dim>
					<dim>288</dim>
					<dim>4</dim>
					<dim>4</dim>
				</port>
				<port id="1" precision="FP32">
					<dim>1</dim>
					<dim>288</dim>
					<dim>1</dim>
					<dim>1</dim>
				</port>
			</input>
			<output>
				<port id="2" precision="FP32" names="509">
					<dim>-1</dim>
					<dim>288</dim>
					<dim>4</dim>
					<dim>4</dim>
				</port>
			</output>
		</layer>
		<layer id="204" name="Mul_236" type="HSwish" version="opset4">
			<input>
				<port id="0" precision="FP32">
					<dim>-1</dim>
					<dim>288</dim>
					<dim>4</dim>
					<dim>4</dim>
				</port>
			</input>
			<output>
				<port id="1" precision="FP32" names="517">
					<dim>-1</dim>
					<dim>288</dim>
					<dim>4</dim>
					<dim>4</dim>
				</port>
			</output>
		</layer>
		<layer id="205" name="Range_36623" type="Const" version="opset1">
			<data element_type="i64" shape="2" offset="2432" size="16" />
			<output>
				<port id="0" precision="I64">
					<dim>2</dim>
				</port>
			</output>
		</layer>
		<layer id="206" name="GlobalAveragePool_237" type="ReduceMean" version="opset1">
			<data keep_dims="true" />
			<input>
				<port id="0" precision="FP32">
					<dim>-1</dim>
					<dim>288</dim>
					<dim>4</dim>
					<dim>4</dim>
				</port>
				<port id="1" precision="I64">
					<dim>2</dim>
				</port>
			</input>
			<output>
				<port id="2" precision="FP32" names="518">
					<dim>-1</dim>
					<dim>288</dim>
					<dim>1</dim>
					<dim>1</dim>
				</port>
			</output>
		</layer>
		<layer id="207" name="blocks.4.0.se.conv_reduce.weight" type="Const" version="opset1">
			<data element_type="f32" shape="72, 288, 1, 1" offset="839248" size="82944" />
			<output>
				<port id="0" precision="FP32" names="blocks.4.0.se.conv_reduce.weight">
					<dim>72</dim>
					<dim>288</dim>
					<dim>1</dim>
					<dim>1</dim>
				</port>
			</output>
		</layer>
		<layer id="208" name="fused Conv_238/WithoutBiases" type="Convolution" version="opset1">
			<data strides="1, 1" dilations="1, 1" pads_begin="0, 0" pads_end="0, 0" auto_pad="explicit" />
			<input>
				<port id="0" precision="FP32">
					<dim>-1</dim>
					<dim>288</dim>
					<dim>1</dim>
					<dim>1</dim>
				</port>
				<port id="1" precision="FP32">
					<dim>72</dim>
					<dim>288</dim>
					<dim>1</dim>
					<dim>1</dim>
				</port>
			</input>
			<output>
				<port id="2" precision="FP32">
					<dim>-1</dim>
					<dim>72</dim>
					<dim>1</dim>
					<dim>1</dim>
				</port>
			</output>
		</layer>
		<layer id="209" name="Reshape_36638" type="Const" version="opset1">
			<data element_type="f32" shape="1, 72, 1, 1" offset="922192" size="288" />
			<output>
				<port id="0" precision="FP32">
					<dim>1</dim>
					<dim>72</dim>
					<dim>1</dim>
					<dim>1</dim>
				</port>
			</output>
		</layer>
		<layer id="210" name="Add_36639" type="Add" version="opset1">
			<data auto_broadcast="numpy" />
			<input>
				<port id="0" precision="FP32">
					<dim>-1</dim>
					<dim>72</dim>
					<dim>1</dim>
					<dim>1</dim>
				</port>
				<port id="1" precision="FP32">
					<dim>1</dim>
					<dim>72</dim>
					<dim>1</dim>
					<dim>1</dim>
				</port>
			</input>
			<output>
				<port id="2" precision="FP32">
					<dim>-1</dim>
					<dim>72</dim>
					<dim>1</dim>
					<dim>1</dim>
				</port>
			</output>
		</layer>
		<layer id="211" name="fused Conv_238" type="ReLU" version="opset1">
			<input>
				<port id="0" precision="FP32">
					<dim>-1</dim>
					<dim>72</dim>
					<dim>1</dim>
					<dim>1</dim>
				</port>
			</input>
			<output>
				<port id="1" precision="FP32" names="520">
					<dim>-1</dim>
					<dim>72</dim>
					<dim>1</dim>
					<dim>1</dim>
				</port>
			</output>
		</layer>
		<layer id="212" name="blocks.4.0.se.conv_expand.weight" type="Const" version="opset1">
			<data element_type="f32" shape="288, 72, 1, 1" offset="922480" size="82944" />
			<output>
				<port id="0" precision="FP32" names="blocks.4.0.se.conv_expand.weight">
					<dim>288</dim>
					<dim>72</dim>
					<dim>1</dim>
					<dim>1</dim>
				</port>
			</output>
		</layer>
		<layer id="213" name="Conv_240/WithoutBiases" type="Convolution" version="opset1">
			<data strides="1, 1" dilations="1, 1" pads_begin="0, 0" pads_end="0, 0" auto_pad="explicit" />
			<input>
				<port id="0" precision="FP32">
					<dim>-1</dim>
					<dim>72</dim>
					<dim>1</dim>
					<dim>1</dim>
				</port>
				<port id="1" precision="FP32">
					<dim>288</dim>
					<dim>72</dim>
					<dim>1</dim>
					<dim>1</dim>
				</port>
			</input>
			<output>
				<port id="2" precision="FP32">
					<dim>-1</dim>
					<dim>288</dim>
					<dim>1</dim>
					<dim>1</dim>
				</port>
			</output>
		</layer>
		<layer id="214" name="Reshape_36652" type="Const" version="opset1">
			<data element_type="f32" shape="1, 288, 1, 1" offset="1005424" size="1152" />
			<output>
				<port id="0" precision="FP32">
					<dim>1</dim>
					<dim>288</dim>
					<dim>1</dim>
					<dim>1</dim>
				</port>
			</output>
		</layer>
		<layer id="215" name="Conv_240" type="Add" version="opset1">
			<data auto_broadcast="numpy" />
			<input>
				<port id="0" precision="FP32">
					<dim>-1</dim>
					<dim>288</dim>
					<dim>1</dim>
					<dim>1</dim>
				</port>
				<port id="1" precision="FP32">
					<dim>1</dim>
					<dim>288</dim>
					<dim>1</dim>
					<dim>1</dim>
				</port>
			</input>
			<output>
				<port id="2" precision="FP32" names="521">
					<dim>-1</dim>
					<dim>288</dim>
					<dim>1</dim>
					<dim>1</dim>
				</port>
			</output>
		</layer>
		<layer id="216" name="Div_247" type="HSigmoid" version="opset5">
			<input>
				<port id="0" precision="FP32">
					<dim>-1</dim>
					<dim>288</dim>
					<dim>1</dim>
					<dim>1</dim>
				</port>
			</input>
			<output>
				<port id="1" precision="FP32" names="528">
					<dim>-1</dim>
					<dim>288</dim>
					<dim>1</dim>
					<dim>1</dim>
				</port>
			</output>
		</layer>
		<layer id="217" name="Mul_248" type="Multiply" version="opset1">
			<data auto_broadcast="numpy" />
			<input>
				<port id="0" precision="FP32">
					<dim>-1</dim>
					<dim>288</dim>
					<dim>4</dim>
					<dim>4</dim>
				</port>
				<port id="1" precision="FP32">
					<dim>-1</dim>
					<dim>288</dim>
					<dim>1</dim>
					<dim>1</dim>
				</port>
			</input>
			<output>
				<port id="2" precision="FP32" names="529">
					<dim>-1</dim>
					<dim>288</dim>
					<dim>4</dim>
					<dim>4</dim>
				</port>
			</output>
		</layer>
		<layer id="218" name="ConvBnFusion_W_blocks.4.0.conv_pwl.weight" type="Const" version="opset1">
			<data element_type="f32" shape="96, 288, 1, 1" offset="1006576" size="110592" />
			<output>
				<port id="0" precision="FP32" names="ConvBnFusion_W_blocks.4.0.conv_pwl.weight">
					<dim>96</dim>
					<dim>288</dim>
					<dim>1</dim>
					<dim>1</dim>
				</port>
			</output>
		</layer>
		<layer id="219" name="Conv_249/WithoutBiases" type="Convolution" version="opset1">
			<data strides="1, 1" dilations="1, 1" pads_begin="0, 0" pads_end="0, 0" auto_pad="explicit" />
			<input>
				<port id="0" precision="FP32">
					<dim>-1</dim>
					<dim>288</dim>
					<dim>4</dim>
					<dim>4</dim>
				</port>
				<port id="1" precision="FP32">
					<dim>96</dim>
					<dim>288</dim>
					<dim>1</dim>
					<dim>1</dim>
				</port>
			</input>
			<output>
				<port id="2" precision="FP32">
					<dim>-1</dim>
					<dim>96</dim>
					<dim>4</dim>
					<dim>4</dim>
				</port>
			</output>
		</layer>
		<layer id="220" name="Reshape_36670" type="Const" version="opset1">
			<data element_type="f32" shape="1, 96, 1, 1" offset="1117168" size="384" />
			<output>
				<port id="0" precision="FP32">
					<dim>1</dim>
					<dim>96</dim>
					<dim>1</dim>
					<dim>1</dim>
				</port>
			</output>
		</layer>
		<layer id="221" name="Conv_249" type="Add" version="opset1">
			<data auto_broadcast="numpy" />
			<input>
				<port id="0" precision="FP32">
					<dim>-1</dim>
					<dim>96</dim>
					<dim>4</dim>
					<dim>4</dim>
				</port>
				<port id="1" precision="FP32">
					<dim>1</dim>
					<dim>96</dim>
					<dim>1</dim>
					<dim>1</dim>
				</port>
			</input>
			<output>
				<port id="2" precision="FP32" names="531">
					<dim>-1</dim>
					<dim>96</dim>
					<dim>4</dim>
					<dim>4</dim>
				</port>
			</output>
		</layer>
		<layer id="222" name="ConvBnFusion_W_blocks.4.1.conv_pw.weight" type="Const" version="opset1">
			<data element_type="f32" shape="576, 96, 1, 1" offset="1117552" size="221184" />
			<output>
				<port id="0" precision="FP32" names="ConvBnFusion_W_blocks.4.1.conv_pw.weight">
					<dim>576</dim>
					<dim>96</dim>
					<dim>1</dim>
					<dim>1</dim>
				</port>
			</output>
		</layer>
		<layer id="223" name="Conv_251/WithoutBiases" type="Convolution" version="opset1">
			<data strides="1, 1" dilations="1, 1" pads_begin="0, 0" pads_end="0, 0" auto_pad="explicit" />
			<input>
				<port id="0" precision="FP32">
					<dim>-1</dim>
					<dim>96</dim>
					<dim>4</dim>
					<dim>4</dim>
				</port>
				<port id="1" precision="FP32">
					<dim>576</dim>
					<dim>96</dim>
					<dim>1</dim>
					<dim>1</dim>
				</port>
			</input>
			<output>
				<port id="2" precision="FP32">
					<dim>-1</dim>
					<dim>576</dim>
					<dim>4</dim>
					<dim>4</dim>
				</port>
			</output>
		</layer>
		<layer id="224" name="Reshape_36683" type="Const" version="opset1">
			<data element_type="f32" shape="1, 576, 1, 1" offset="1338736" size="2304" />
			<output>
				<port id="0" precision="FP32">
					<dim>1</dim>
					<dim>576</dim>
					<dim>1</dim>
					<dim>1</dim>
				</port>
			</output>
		</layer>
		<layer id="225" name="Conv_251" type="Add" version="opset1">
			<data auto_broadcast="numpy" />
			<input>
				<port id="0" precision="FP32">
					<dim>-1</dim>
					<dim>576</dim>
					<dim>4</dim>
					<dim>4</dim>
				</port>
				<port id="1" precision="FP32">
					<dim>1</dim>
					<dim>576</dim>
					<dim>1</dim>
					<dim>1</dim>
				</port>
			</input>
			<output>
				<port id="2" precision="FP32" names="533">
					<dim>-1</dim>
					<dim>576</dim>
					<dim>4</dim>
					<dim>4</dim>
				</port>
			</output>
		</layer>
		<layer id="226" name="Mul_260" type="HSwish" version="opset4">
			<input>
				<port id="0" precision="FP32">
					<dim>-1</dim>
					<dim>576</dim>
					<dim>4</dim>
					<dim>4</dim>
				</port>
			</input>
			<output>
				<port id="1" precision="FP32" names="541">
					<dim>-1</dim>
					<dim>576</dim>
					<dim>4</dim>
					<dim>4</dim>
				</port>
			</output>
		</layer>
		<layer id="227" name="Reshape_36697" type="Const" version="opset1">
			<data element_type="f32" shape="576, 1, 1, 5, 5" offset="1341040" size="57600" />
			<output>
				<port id="0" precision="FP32">
					<dim>576</dim>
					<dim>1</dim>
					<dim>1</dim>
					<dim>5</dim>
					<dim>5</dim>
				</port>
			</output>
		</layer>
		<layer id="228" name="Conv_261/WithoutBiases" type="GroupConvolution" version="opset1">
			<data strides="1, 1" pads_begin="2, 2" pads_end="2, 2" dilations="1, 1" auto_pad="explicit" />
			<input>
				<port id="0" precision="FP32">
					<dim>-1</dim>
					<dim>576</dim>
					<dim>4</dim>
					<dim>4</dim>
				</port>
				<port id="1" precision="FP32">
					<dim>576</dim>
					<dim>1</dim>
					<dim>1</dim>
					<dim>5</dim>
					<dim>5</dim>
				</port>
			</input>
			<output>
				<port id="2" precision="FP32">
					<dim>-1</dim>
					<dim>576</dim>
					<dim>4</dim>
					<dim>4</dim>
				</port>
			</output>
		</layer>
		<layer id="229" name="Reshape_36747" type="Const" version="opset1">
			<data element_type="f32" shape="1, 576, 1, 1" offset="1398640" size="2304" />
			<output>
				<port id="0" precision="FP32">
					<dim>1</dim>
					<dim>576</dim>
					<dim>1</dim>
					<dim>1</dim>
				</port>
			</output>
		</layer>
		<layer id="230" name="Conv_261" type="Add" version="opset1">
			<data auto_broadcast="numpy" />
			<input>
				<port id="0" precision="FP32">
					<dim>-1</dim>
					<dim>576</dim>
					<dim>4</dim>
					<dim>4</dim>
				</port>
				<port id="1" precision="FP32">
					<dim>1</dim>
					<dim>576</dim>
					<dim>1</dim>
					<dim>1</dim>
				</port>
			</input>
			<output>
				<port id="2" precision="FP32" names="543">
					<dim>-1</dim>
					<dim>576</dim>
					<dim>4</dim>
					<dim>4</dim>
				</port>
			</output>
		</layer>
		<layer id="231" name="Mul_270" type="HSwish" version="opset4">
			<input>
				<port id="0" precision="FP32">
					<dim>-1</dim>
					<dim>576</dim>
					<dim>4</dim>
					<dim>4</dim>
				</port>
			</input>
			<output>
				<port id="1" precision="FP32" names="551">
					<dim>-1</dim>
					<dim>576</dim>
					<dim>4</dim>
					<dim>4</dim>
				</port>
			</output>
		</layer>
		<layer id="232" name="Range_36760" type="Const" version="opset1">
			<data element_type="i64" shape="2" offset="2432" size="16" />
			<output>
				<port id="0" precision="I64">
					<dim>2</dim>
				</port>
			</output>
		</layer>
		<layer id="233" name="GlobalAveragePool_271" type="ReduceMean" version="opset1">
			<data keep_dims="true" />
			<input>
				<port id="0" precision="FP32">
					<dim>-1</dim>
					<dim>576</dim>
					<dim>4</dim>
					<dim>4</dim>
				</port>
				<port id="1" precision="I64">
					<dim>2</dim>
				</port>
			</input>
			<output>
				<port id="2" precision="FP32" names="552">
					<dim>-1</dim>
					<dim>576</dim>
					<dim>1</dim>
					<dim>1</dim>
				</port>
			</output>
		</layer>
		<layer id="234" name="blocks.4.1.se.conv_reduce.weight" type="Const" version="opset1">
			<data element_type="f32" shape="144, 576, 1, 1" offset="1400944" size="331776" />
			<output>
				<port id="0" precision="FP32" names="blocks.4.1.se.conv_reduce.weight">
					<dim>144</dim>
					<dim>576</dim>
					<dim>1</dim>
					<dim>1</dim>
				</port>
			</output>
		</layer>
		<layer id="235" name="fused Conv_272/WithoutBiases" type="Convolution" version="opset1">
			<data strides="1, 1" dilations="1, 1" pads_begin="0, 0" pads_end="0, 0" auto_pad="explicit" />
			<input>
				<port id="0" precision="FP32">
					<dim>-1</dim>
					<dim>576</dim>
					<dim>1</dim>
					<dim>1</dim>
				</port>
				<port id="1" precision="FP32">
					<dim>144</dim>
					<dim>576</dim>
					<dim>1</dim>
					<dim>1</dim>
				</port>
			</input>
			<output>
				<port id="2" precision="FP32">
					<dim>-1</dim>
					<dim>144</dim>
					<dim>1</dim>
					<dim>1</dim>
				</port>
			</output>
		</layer>
		<layer id="236" name="Reshape_36775" type="Const" version="opset1">
			<data element_type="f32" shape="1, 144, 1, 1" offset="1732720" size="576" />
			<output>
				<port id="0" precision="FP32">
					<dim>1</dim>
					<dim>144</dim>
					<dim>1</dim>
					<dim>1</dim>
				</port>
			</output>
		</layer>
		<layer id="237" name="Add_36776" type="Add" version="opset1">
			<data auto_broadcast="numpy" />
			<input>
				<port id="0" precision="FP32">
					<dim>-1</dim>
					<dim>144</dim>
					<dim>1</dim>
					<dim>1</dim>
				</port>
				<port id="1" precision="FP32">
					<dim>1</dim>
					<dim>144</dim>
					<dim>1</dim>
					<dim>1</dim>
				</port>
			</input>
			<output>
				<port id="2" precision="FP32">
					<dim>-1</dim>
					<dim>144</dim>
					<dim>1</dim>
					<dim>1</dim>
				</port>
			</output>
		</layer>
		<layer id="238" name="fused Conv_272" type="ReLU" version="opset1">
			<input>
				<port id="0" precision="FP32">
					<dim>-1</dim>
					<dim>144</dim>
					<dim>1</dim>
					<dim>1</dim>
				</port>
			</input>
			<output>
				<port id="1" precision="FP32" names="554">
					<dim>-1</dim>
					<dim>144</dim>
					<dim>1</dim>
					<dim>1</dim>
				</port>
			</output>
		</layer>
		<layer id="239" name="blocks.4.1.se.conv_expand.weight" type="Const" version="opset1">
			<data element_type="f32" shape="576, 144, 1, 1" offset="1733296" size="331776" />
			<output>
				<port id="0" precision="FP32" names="blocks.4.1.se.conv_expand.weight">
					<dim>576</dim>
					<dim>144</dim>
					<dim>1</dim>
					<dim>1</dim>
				</port>
			</output>
		</layer>
		<layer id="240" name="Conv_274/WithoutBiases" type="Convolution" version="opset1">
			<data strides="1, 1" dilations="1, 1" pads_begin="0, 0" pads_end="0, 0" auto_pad="explicit" />
			<input>
				<port id="0" precision="FP32">
					<dim>-1</dim>
					<dim>144</dim>
					<dim>1</dim>
					<dim>1</dim>
				</port>
				<port id="1" precision="FP32">
					<dim>576</dim>
					<dim>144</dim>
					<dim>1</dim>
					<dim>1</dim>
				</port>
			</input>
			<output>
				<port id="2" precision="FP32">
					<dim>-1</dim>
					<dim>576</dim>
					<dim>1</dim>
					<dim>1</dim>
				</port>
			</output>
		</layer>
		<layer id="241" name="Reshape_36789" type="Const" version="opset1">
			<data element_type="f32" shape="1, 576, 1, 1" offset="2065072" size="2304" />
			<output>
				<port id="0" precision="FP32">
					<dim>1</dim>
					<dim>576</dim>
					<dim>1</dim>
					<dim>1</dim>
				</port>
			</output>
		</layer>
		<layer id="242" name="Conv_274" type="Add" version="opset1">
			<data auto_broadcast="numpy" />
			<input>
				<port id="0" precision="FP32">
					<dim>-1</dim>
					<dim>576</dim>
					<dim>1</dim>
					<dim>1</dim>
				</port>
				<port id="1" precision="FP32">
					<dim>1</dim>
					<dim>576</dim>
					<dim>1</dim>
					<dim>1</dim>
				</port>
			</input>
			<output>
				<port id="2" precision="FP32" names="555">
					<dim>-1</dim>
					<dim>576</dim>
					<dim>1</dim>
					<dim>1</dim>
				</port>
			</output>
		</layer>
		<layer id="243" name="Div_281" type="HSigmoid" version="opset5">
			<input>
				<port id="0" precision="FP32">
					<dim>-1</dim>
					<dim>576</dim>
					<dim>1</dim>
					<dim>1</dim>
				</port>
			</input>
			<output>
				<port id="1" precision="FP32" names="562">
					<dim>-1</dim>
					<dim>576</dim>
					<dim>1</dim>
					<dim>1</dim>
				</port>
			</output>
		</layer>
		<layer id="244" name="Mul_282" type="Multiply" version="opset1">
			<data auto_broadcast="numpy" />
			<input>
				<port id="0" precision="FP32">
					<dim>-1</dim>
					<dim>576</dim>
					<dim>4</dim>
					<dim>4</dim>
				</port>
				<port id="1" precision="FP32">
					<dim>-1</dim>
					<dim>576</dim>
					<dim>1</dim>
					<dim>1</dim>
				</port>
			</input>
			<output>
				<port id="2" precision="FP32" names="563">
					<dim>-1</dim>
					<dim>576</dim>
					<dim>4</dim>
					<dim>4</dim>
				</port>
			</output>
		</layer>
		<layer id="245" name="ConvBnFusion_W_blocks.4.1.conv_pwl.weight" type="Const" version="opset1">
			<data element_type="f32" shape="96, 576, 1, 1" offset="2067376" size="221184" />
			<output>
				<port id="0" precision="FP32" names="ConvBnFusion_W_blocks.4.1.conv_pwl.weight">
					<dim>96</dim>
					<dim>576</dim>
					<dim>1</dim>
					<dim>1</dim>
				</port>
			</output>
		</layer>
		<layer id="246" name="Conv_283/WithoutBiases" type="Convolution" version="opset1">
			<data strides="1, 1" dilations="1, 1" pads_begin="0, 0" pads_end="0, 0" auto_pad="explicit" />
			<input>
				<port id="0" precision="FP32">
					<dim>-1</dim>
					<dim>576</dim>
					<dim>4</dim>
					<dim>4</dim>
				</port>
				<port id="1" precision="FP32">
					<dim>96</dim>
					<dim>576</dim>
					<dim>1</dim>
					<dim>1</dim>
				</port>
			</input>
			<output>
				<port id="2" precision="FP32">
					<dim>-1</dim>
					<dim>96</dim>
					<dim>4</dim>
					<dim>4</dim>
				</port>
			</output>
		</layer>
		<layer id="247" name="Reshape_36807" type="Const" version="opset1">
			<data element_type="f32" shape="1, 96, 1, 1" offset="2288560" size="384" />
			<output>
				<port id="0" precision="FP32">
					<dim>1</dim>
					<dim>96</dim>
					<dim>1</dim>
					<dim>1</dim>
				</port>
			</output>
		</layer>
		<layer id="248" name="Conv_283" type="Add" version="opset1">
			<data auto_broadcast="numpy" />
			<input>
				<port id="0" precision="FP32">
					<dim>-1</dim>
					<dim>96</dim>
					<dim>4</dim>
					<dim>4</dim>
				</port>
				<port id="1" precision="FP32">
					<dim>1</dim>
					<dim>96</dim>
					<dim>1</dim>
					<dim>1</dim>
				</port>
			</input>
			<output>
				<port id="2" precision="FP32" names="565">
					<dim>-1</dim>
					<dim>96</dim>
					<dim>4</dim>
					<dim>4</dim>
				</port>
			</output>
		</layer>
		<layer id="249" name="Add_285" type="Add" version="opset1">
			<data auto_broadcast="numpy" />
			<input>
				<port id="0" precision="FP32">
					<dim>-1</dim>
					<dim>96</dim>
					<dim>4</dim>
					<dim>4</dim>
				</port>
				<port id="1" precision="FP32">
					<dim>-1</dim>
					<dim>96</dim>
					<dim>4</dim>
					<dim>4</dim>
				</port>
			</input>
			<output>
				<port id="2" precision="FP32" names="566">
					<dim>-1</dim>
					<dim>96</dim>
					<dim>4</dim>
					<dim>4</dim>
				</port>
			</output>
		</layer>
		<layer id="250" name="ConvBnFusion_W_blocks.4.2.conv_pw.weight" type="Const" version="opset1">
			<data element_type="f32" shape="576, 96, 1, 1" offset="2288944" size="221184" />
			<output>
				<port id="0" precision="FP32" names="ConvBnFusion_W_blocks.4.2.conv_pw.weight">
					<dim>576</dim>
					<dim>96</dim>
					<dim>1</dim>
					<dim>1</dim>
				</port>
			</output>
		</layer>
		<layer id="251" name="Conv_286/WithoutBiases" type="Convolution" version="opset1">
			<data strides="1, 1" dilations="1, 1" pads_begin="0, 0" pads_end="0, 0" auto_pad="explicit" />
			<input>
				<port id="0" precision="FP32">
					<dim>-1</dim>
					<dim>96</dim>
					<dim>4</dim>
					<dim>4</dim>
				</port>
				<port id="1" precision="FP32">
					<dim>576</dim>
					<dim>96</dim>
					<dim>1</dim>
					<dim>1</dim>
				</port>
			</input>
			<output>
				<port id="2" precision="FP32">
					<dim>-1</dim>
					<dim>576</dim>
					<dim>4</dim>
					<dim>4</dim>
				</port>
			</output>
		</layer>
		<layer id="252" name="Reshape_36821" type="Const" version="opset1">
			<data element_type="f32" shape="1, 576, 1, 1" offset="2510128" size="2304" />
			<output>
				<port id="0" precision="FP32">
					<dim>1</dim>
					<dim>576</dim>
					<dim>1</dim>
					<dim>1</dim>
				</port>
			</output>
		</layer>
		<layer id="253" name="Conv_286" type="Add" version="opset1">
			<data auto_broadcast="numpy" />
			<input>
				<port id="0" precision="FP32">
					<dim>-1</dim>
					<dim>576</dim>
					<dim>4</dim>
					<dim>4</dim>
				</port>
				<port id="1" precision="FP32">
					<dim>1</dim>
					<dim>576</dim>
					<dim>1</dim>
					<dim>1</dim>
				</port>
			</input>
			<output>
				<port id="2" precision="FP32" names="568">
					<dim>-1</dim>
					<dim>576</dim>
					<dim>4</dim>
					<dim>4</dim>
				</port>
			</output>
		</layer>
		<layer id="254" name="Mul_295" type="HSwish" version="opset4">
			<input>
				<port id="0" precision="FP32">
					<dim>-1</dim>
					<dim>576</dim>
					<dim>4</dim>
					<dim>4</dim>
				</port>
			</input>
			<output>
				<port id="1" precision="FP32" names="576">
					<dim>-1</dim>
					<dim>576</dim>
					<dim>4</dim>
					<dim>4</dim>
				</port>
			</output>
		</layer>
		<layer id="255" name="Reshape_36835" type="Const" version="opset1">
			<data element_type="f32" shape="576, 1, 1, 5, 5" offset="2512432" size="57600" />
			<output>
				<port id="0" precision="FP32">
					<dim>576</dim>
					<dim>1</dim>
					<dim>1</dim>
					<dim>5</dim>
					<dim>5</dim>
				</port>
			</output>
		</layer>
		<layer id="256" name="Conv_296/WithoutBiases" type="GroupConvolution" version="opset1">
			<data strides="1, 1" pads_begin="2, 2" pads_end="2, 2" dilations="1, 1" auto_pad="explicit" />
			<input>
				<port id="0" precision="FP32">
					<dim>-1</dim>
					<dim>576</dim>
					<dim>4</dim>
					<dim>4</dim>
				</port>
				<port id="1" precision="FP32">
					<dim>576</dim>
					<dim>1</dim>
					<dim>1</dim>
					<dim>5</dim>
					<dim>5</dim>
				</port>
			</input>
			<output>
				<port id="2" precision="FP32">
					<dim>-1</dim>
					<dim>576</dim>
					<dim>4</dim>
					<dim>4</dim>
				</port>
			</output>
		</layer>
		<layer id="257" name="Reshape_36885" type="Const" version="opset1">
			<data element_type="f32" shape="1, 576, 1, 1" offset="2570032" size="2304" />
			<output>
				<port id="0" precision="FP32">
					<dim>1</dim>
					<dim>576</dim>
					<dim>1</dim>
					<dim>1</dim>
				</port>
			</output>
		</layer>
		<layer id="258" name="Conv_296" type="Add" version="opset1">
			<data auto_broadcast="numpy" />
			<input>
				<port id="0" precision="FP32">
					<dim>-1</dim>
					<dim>576</dim>
					<dim>4</dim>
					<dim>4</dim>
				</port>
				<port id="1" precision="FP32">
					<dim>1</dim>
					<dim>576</dim>
					<dim>1</dim>
					<dim>1</dim>
				</port>
			</input>
			<output>
				<port id="2" precision="FP32" names="578">
					<dim>-1</dim>
					<dim>576</dim>
					<dim>4</dim>
					<dim>4</dim>
				</port>
			</output>
		</layer>
		<layer id="259" name="Mul_305" type="HSwish" version="opset4">
			<input>
				<port id="0" precision="FP32">
					<dim>-1</dim>
					<dim>576</dim>
					<dim>4</dim>
					<dim>4</dim>
				</port>
			</input>
			<output>
				<port id="1" precision="FP32" names="586">
					<dim>-1</dim>
					<dim>576</dim>
					<dim>4</dim>
					<dim>4</dim>
				</port>
			</output>
		</layer>
		<layer id="260" name="Range_36898" type="Const" version="opset1">
			<data element_type="i64" shape="2" offset="2432" size="16" />
			<output>
				<port id="0" precision="I64">
					<dim>2</dim>
				</port>
			</output>
		</layer>
		<layer id="261" name="GlobalAveragePool_306" type="ReduceMean" version="opset1">
			<data keep_dims="true" />
			<input>
				<port id="0" precision="FP32">
					<dim>-1</dim>
					<dim>576</dim>
					<dim>4</dim>
					<dim>4</dim>
				</port>
				<port id="1" precision="I64">
					<dim>2</dim>
				</port>
			</input>
			<output>
				<port id="2" precision="FP32" names="587">
					<dim>-1</dim>
					<dim>576</dim>
					<dim>1</dim>
					<dim>1</dim>
				</port>
			</output>
		</layer>
		<layer id="262" name="blocks.4.2.se.conv_reduce.weight" type="Const" version="opset1">
			<data element_type="f32" shape="144, 576, 1, 1" offset="2572336" size="331776" />
			<output>
				<port id="0" precision="FP32" names="blocks.4.2.se.conv_reduce.weight">
					<dim>144</dim>
					<dim>576</dim>
					<dim>1</dim>
					<dim>1</dim>
				</port>
			</output>
		</layer>
		<layer id="263" name="fused Conv_307/WithoutBiases" type="Convolution" version="opset1">
			<data strides="1, 1" dilations="1, 1" pads_begin="0, 0" pads_end="0, 0" auto_pad="explicit" />
			<input>
				<port id="0" precision="FP32">
					<dim>-1</dim>
					<dim>576</dim>
					<dim>1</dim>
					<dim>1</dim>
				</port>
				<port id="1" precision="FP32">
					<dim>144</dim>
					<dim>576</dim>
					<dim>1</dim>
					<dim>1</dim>
				</port>
			</input>
			<output>
				<port id="2" precision="FP32">
					<dim>-1</dim>
					<dim>144</dim>
					<dim>1</dim>
					<dim>1</dim>
				</port>
			</output>
		</layer>
		<layer id="264" name="Reshape_36913" type="Const" version="opset1">
			<data element_type="f32" shape="1, 144, 1, 1" offset="2904112" size="576" />
			<output>
				<port id="0" precision="FP32">
					<dim>1</dim>
					<dim>144</dim>
					<dim>1</dim>
					<dim>1</dim>
				</port>
			</output>
		</layer>
		<layer id="265" name="Add_36914" type="Add" version="opset1">
			<data auto_broadcast="numpy" />
			<input>
				<port id="0" precision="FP32">
					<dim>-1</dim>
					<dim>144</dim>
					<dim>1</dim>
					<dim>1</dim>
				</port>
				<port id="1" precision="FP32">
					<dim>1</dim>
					<dim>144</dim>
					<dim>1</dim>
					<dim>1</dim>
				</port>
			</input>
			<output>
				<port id="2" precision="FP32">
					<dim>-1</dim>
					<dim>144</dim>
					<dim>1</dim>
					<dim>1</dim>
				</port>
			</output>
		</layer>
		<layer id="266" name="fused Conv_307" type="ReLU" version="opset1">
			<input>
				<port id="0" precision="FP32">
					<dim>-1</dim>
					<dim>144</dim>
					<dim>1</dim>
					<dim>1</dim>
				</port>
			</input>
			<output>
				<port id="1" precision="FP32" names="589">
					<dim>-1</dim>
					<dim>144</dim>
					<dim>1</dim>
					<dim>1</dim>
				</port>
			</output>
		</layer>
		<layer id="267" name="blocks.4.2.se.conv_expand.weight" type="Const" version="opset1">
			<data element_type="f32" shape="576, 144, 1, 1" offset="2904688" size="331776" />
			<output>
				<port id="0" precision="FP32" names="blocks.4.2.se.conv_expand.weight">
					<dim>576</dim>
					<dim>144</dim>
					<dim>1</dim>
					<dim>1</dim>
				</port>
			</output>
		</layer>
		<layer id="268" name="Conv_309/WithoutBiases" type="Convolution" version="opset1">
			<data strides="1, 1" dilations="1, 1" pads_begin="0, 0" pads_end="0, 0" auto_pad="explicit" />
			<input>
				<port id="0" precision="FP32">
					<dim>-1</dim>
					<dim>144</dim>
					<dim>1</dim>
					<dim>1</dim>
				</port>
				<port id="1" precision="FP32">
					<dim>576</dim>
					<dim>144</dim>
					<dim>1</dim>
					<dim>1</dim>
				</port>
			</input>
			<output>
				<port id="2" precision="FP32">
					<dim>-1</dim>
					<dim>576</dim>
					<dim>1</dim>
					<dim>1</dim>
				</port>
			</output>
		</layer>
		<layer id="269" name="Reshape_36927" type="Const" version="opset1">
			<data element_type="f32" shape="1, 576, 1, 1" offset="3236464" size="2304" />
			<output>
				<port id="0" precision="FP32">
					<dim>1</dim>
					<dim>576</dim>
					<dim>1</dim>
					<dim>1</dim>
				</port>
			</output>
		</layer>
		<layer id="270" name="Conv_309" type="Add" version="opset1">
			<data auto_broadcast="numpy" />
			<input>
				<port id="0" precision="FP32">
					<dim>-1</dim>
					<dim>576</dim>
					<dim>1</dim>
					<dim>1</dim>
				</port>
				<port id="1" precision="FP32">
					<dim>1</dim>
					<dim>576</dim>
					<dim>1</dim>
					<dim>1</dim>
				</port>
			</input>
			<output>
				<port id="2" precision="FP32" names="590">
					<dim>-1</dim>
					<dim>576</dim>
					<dim>1</dim>
					<dim>1</dim>
				</port>
			</output>
		</layer>
		<layer id="271" name="Div_316" type="HSigmoid" version="opset5">
			<input>
				<port id="0" precision="FP32">
					<dim>-1</dim>
					<dim>576</dim>
					<dim>1</dim>
					<dim>1</dim>
				</port>
			</input>
			<output>
				<port id="1" precision="FP32" names="597">
					<dim>-1</dim>
					<dim>576</dim>
					<dim>1</dim>
					<dim>1</dim>
				</port>
			</output>
		</layer>
		<layer id="272" name="Mul_317" type="Multiply" version="opset1">
			<data auto_broadcast="numpy" />
			<input>
				<port id="0" precision="FP32">
					<dim>-1</dim>
					<dim>576</dim>
					<dim>4</dim>
					<dim>4</dim>
				</port>
				<port id="1" precision="FP32">
					<dim>-1</dim>
					<dim>576</dim>
					<dim>1</dim>
					<dim>1</dim>
				</port>
			</input>
			<output>
				<port id="2" precision="FP32" names="598">
					<dim>-1</dim>
					<dim>576</dim>
					<dim>4</dim>
					<dim>4</dim>
				</port>
			</output>
		</layer>
		<layer id="273" name="ConvBnFusion_W_blocks.4.2.conv_pwl.weight" type="Const" version="opset1">
			<data element_type="f32" shape="96, 576, 1, 1" offset="3238768" size="221184" />
			<output>
				<port id="0" precision="FP32" names="ConvBnFusion_W_blocks.4.2.conv_pwl.weight">
					<dim>96</dim>
					<dim>576</dim>
					<dim>1</dim>
					<dim>1</dim>
				</port>
			</output>
		</layer>
		<layer id="274" name="Conv_318/WithoutBiases" type="Convolution" version="opset1">
			<data strides="1, 1" dilations="1, 1" pads_begin="0, 0" pads_end="0, 0" auto_pad="explicit" />
			<input>
				<port id="0" precision="FP32">
					<dim>-1</dim>
					<dim>576</dim>
					<dim>4</dim>
					<dim>4</dim>
				</port>
				<port id="1" precision="FP32">
					<dim>96</dim>
					<dim>576</dim>
					<dim>1</dim>
					<dim>1</dim>
				</port>
			</input>
			<output>
				<port id="2" precision="FP32">
					<dim>-1</dim>
					<dim>96</dim>
					<dim>4</dim>
					<dim>4</dim>
				</port>
			</output>
		</layer>
		<layer id="275" name="Reshape_36945" type="Const" version="opset1">
			<data element_type="f32" shape="1, 96, 1, 1" offset="3459952" size="384" />
			<output>
				<port id="0" precision="FP32">
					<dim>1</dim>
					<dim>96</dim>
					<dim>1</dim>
					<dim>1</dim>
				</port>
			</output>
		</layer>
		<layer id="276" name="Conv_318" type="Add" version="opset1">
			<data auto_broadcast="numpy" />
			<input>
				<port id="0" precision="FP32">
					<dim>-1</dim>
					<dim>96</dim>
					<dim>4</dim>
					<dim>4</dim>
				</port>
				<port id="1" precision="FP32">
					<dim>1</dim>
					<dim>96</dim>
					<dim>1</dim>
					<dim>1</dim>
				</port>
			</input>
			<output>
				<port id="2" precision="FP32" names="600">
					<dim>-1</dim>
					<dim>96</dim>
					<dim>4</dim>
					<dim>4</dim>
				</port>
			</output>
		</layer>
		<layer id="277" name="Add_320" type="Add" version="opset1">
			<data auto_broadcast="numpy" />
			<input>
				<port id="0" precision="FP32">
					<dim>-1</dim>
					<dim>96</dim>
					<dim>4</dim>
					<dim>4</dim>
				</port>
				<port id="1" precision="FP32">
					<dim>-1</dim>
					<dim>96</dim>
					<dim>4</dim>
					<dim>4</dim>
				</port>
			</input>
			<output>
				<port id="2" precision="FP32" names="601">
					<dim>-1</dim>
					<dim>96</dim>
					<dim>4</dim>
					<dim>4</dim>
				</port>
			</output>
		</layer>
		<layer id="278" name="ConvBnFusion_W_blocks.5.0.conv.weight" type="Const" version="opset1">
			<data element_type="f32" shape="576, 96, 1, 1" offset="3460336" size="221184" />
			<output>
				<port id="0" precision="FP32" names="ConvBnFusion_W_blocks.5.0.conv.weight">
					<dim>576</dim>
					<dim>96</dim>
					<dim>1</dim>
					<dim>1</dim>
				</port>
			</output>
		</layer>
		<layer id="279" name="Conv_321/WithoutBiases" type="Convolution" version="opset1">
			<data strides="1, 1" dilations="1, 1" pads_begin="0, 0" pads_end="0, 0" auto_pad="explicit" />
			<input>
				<port id="0" precision="FP32">
					<dim>-1</dim>
					<dim>96</dim>
					<dim>4</dim>
					<dim>4</dim>
				</port>
				<port id="1" precision="FP32">
					<dim>576</dim>
					<dim>96</dim>
					<dim>1</dim>
					<dim>1</dim>
				</port>
			</input>
			<output>
				<port id="2" precision="FP32">
					<dim>-1</dim>
					<dim>576</dim>
					<dim>4</dim>
					<dim>4</dim>
				</port>
			</output>
		</layer>
		<layer id="280" name="Reshape_36959" type="Const" version="opset1">
			<data element_type="f32" shape="1, 576, 1, 1" offset="3681520" size="2304" />
			<output>
				<port id="0" precision="FP32">
					<dim>1</dim>
					<dim>576</dim>
					<dim>1</dim>
					<dim>1</dim>
				</port>
			</output>
		</layer>
		<layer id="281" name="Conv_321" type="Add" version="opset1">
			<data auto_broadcast="numpy" />
			<input>
				<port id="0" precision="FP32">
					<dim>-1</dim>
					<dim>576</dim>
					<dim>4</dim>
					<dim>4</dim>
				</port>
				<port id="1" precision="FP32">
					<dim>1</dim>
					<dim>576</dim>
					<dim>1</dim>
					<dim>1</dim>
				</port>
			</input>
			<output>
				<port id="2" precision="FP32" names="603">
					<dim>-1</dim>
					<dim>576</dim>
					<dim>4</dim>
					<dim>4</dim>
				</port>
			</output>
		</layer>
		<layer id="282" name="Mul_330" type="HSwish" version="opset4">
			<input>
				<port id="0" precision="FP32">
					<dim>-1</dim>
					<dim>576</dim>
					<dim>4</dim>
					<dim>4</dim>
				</port>
			</input>
			<output>
				<port id="1" precision="FP32" names="611">
					<dim>-1</dim>
					<dim>576</dim>
					<dim>4</dim>
					<dim>4</dim>
				</port>
			</output>
		</layer>
		<layer id="283" name="Shape_332" type="ShapeOf" version="opset3">
			<data output_type="i64" />
			<input>
				<port id="0" precision="FP32">
					<dim>-1</dim>
					<dim>576</dim>
					<dim>4</dim>
					<dim>4</dim>
				</port>
			</input>
			<output>
				<port id="1" precision="I64" names="614">
					<dim>4</dim>
				</port>
			</output>
		</layer>
		<layer id="284" name="616" type="Const" version="opset1">
			<data element_type="i64" shape="1" offset="3683824" size="8" />
			<output>
				<port id="0" precision="I64" names="616">
					<dim>1</dim>
				</port>
			</output>
		</layer>
		<layer id="285" name="617" type="Const" version="opset1">
			<data element_type="i64" shape="1" offset="3683832" size="8" />
			<output>
				<port id="0" precision="I64" names="617">
					<dim>1</dim>
				</port>
			</output>
		</layer>
		<layer id="286" name="Broadcast_36969" type="Const" version="opset1">
			<data element_type="i64" shape="1" offset="3683840" size="8" />
			<output>
				<port id="0" precision="I64">
					<dim>1</dim>
				</port>
			</output>
		</layer>
		<layer id="287" name="615" type="Const" version="opset1">
			<data element_type="i64" shape="1" offset="3683824" size="8" />
			<output>
				<port id="0" precision="I64" names="615">
					<dim>1</dim>
				</port>
			</output>
		</layer>
		<layer id="288" name="Slice_336" type="Slice" version="opset8">
			<input>
				<port id="0" precision="I64">
					<dim>4</dim>
				</port>
				<port id="1" precision="I64">
					<dim>1</dim>
				</port>
				<port id="2" precision="I64">
					<dim>1</dim>
				</port>
				<port id="3" precision="I64">
					<dim>1</dim>
				</port>
				<port id="4" precision="I64">
					<dim>1</dim>
				</port>
			</input>
			<output>
				<port id="5" precision="I64" names="618">
					<dim>2</dim>
				</port>
			</output>
		</layer>
		<layer id="289" name="666" type="Const" version="opset1">
			<data element_type="i64" shape="2" offset="3683848" size="16" />
			<output>
				<port id="0" precision="I64" names="666">
					<dim>2</dim>
				</port>
			</output>
		</layer>
		<layer id="290" name="Concat_337" type="Concat" version="opset1">
			<data axis="0" />
			<input>
				<port id="0" precision="I64">
					<dim>2</dim>
				</port>
				<port id="1" precision="I64">
					<dim>2</dim>
				</port>
			</input>
			<output>
				<port id="2" precision="I64" names="620">
					<dim>4</dim>
				</port>
			</output>
		</layer>
		<layer id="291" name="Resize_339" type="Interpolate" version="opset11">
			<data mode="linear_onnx" shape_calculation_mode="sizes" coordinate_transformation_mode="align_corners" nearest_mode="floor" antialias="false" pads_begin="0, 0, 0, 0" pads_end="0, 0, 0, 0" cube_coeff="-0.75" />
			<input>
				<port id="0" precision="FP32">
					<dim>-1</dim>
					<dim>576</dim>
					<dim>4</dim>
					<dim>4</dim>
				</port>
				<port id="1" precision="I64">
					<dim>4</dim>
				</port>
			</input>
			<output>
				<port id="2" precision="FP32" names="622">
					<dim>-1</dim>
					<dim>576</dim>
					<dim>7</dim>
					<dim>7</dim>
				</port>
			</output>
		</layer>
		<layer id="292" name="Concat_340" type="Concat" version="opset1">
			<data axis="1" />
			<input>
				<port id="0" precision="FP32">
					<dim>-1</dim>
					<dim>40</dim>
					<dim>7</dim>
					<dim>7</dim>
				</port>
				<port id="1" precision="FP32">
					<dim>-1</dim>
					<dim>576</dim>
					<dim>7</dim>
					<dim>7</dim>
				</port>
			</input>
			<output>
				<port id="2" precision="FP32" names="623">
					<dim>-1</dim>
					<dim>616</dim>
					<dim>7</dim>
					<dim>7</dim>
				</port>
			</output>
		</layer>
		<layer id="293" name="Reshape_36986" type="Const" version="opset1">
			<data element_type="f32" shape="616, 1, 1, 3, 3" offset="3683864" size="22176" />
			<output>
				<port id="0" precision="FP32">
					<dim>616</dim>
					<dim>1</dim>
					<dim>1</dim>
					<dim>3</dim>
					<dim>3</dim>
				</port>
			</output>
		</layer>
		<layer id="294" name="fused Conv_341/WithoutBiases" type="GroupConvolution" version="opset1">
			<data strides="1, 1" pads_begin="1, 1" pads_end="1, 1" dilations="1, 1" auto_pad="explicit" />
			<input>
				<port id="0" precision="FP32">
					<dim>-1</dim>
					<dim>616</dim>
					<dim>7</dim>
					<dim>7</dim>
				</port>
				<port id="1" precision="FP32">
					<dim>616</dim>
					<dim>1</dim>
					<dim>1</dim>
					<dim>3</dim>
					<dim>3</dim>
				</port>
			</input>
			<output>
				<port id="2" precision="FP32">
					<dim>-1</dim>
					<dim>616</dim>
					<dim>7</dim>
					<dim>7</dim>
				</port>
			</output>
		</layer>
		<layer id="295" name="Reshape_37036" type="Const" version="opset1">
			<data element_type="f32" shape="1, 616, 1, 1" offset="3706040" size="2464" />
			<output>
				<port id="0" precision="FP32">
					<dim>1</dim>
					<dim>616</dim>
					<dim>1</dim>
					<dim>1</dim>
				</port>
			</output>
		</layer>
		<layer id="296" name="Add_37037" type="Add" version="opset1">
			<data auto_broadcast="numpy" />
			<input>
				<port id="0" precision="FP32">
					<dim>-1</dim>
					<dim>616</dim>
					<dim>7</dim>
					<dim>7</dim>
				</port>
				<port id="1" precision="FP32">
					<dim>1</dim>
					<dim>616</dim>
					<dim>1</dim>
					<dim>1</dim>
				</port>
			</input>
			<output>
				<port id="2" precision="FP32">
					<dim>-1</dim>
					<dim>616</dim>
					<dim>7</dim>
					<dim>7</dim>
				</port>
			</output>
		</layer>
		<layer id="297" name="fused Conv_341" type="Clamp" version="opset1">
			<data min="0" max="6" />
			<input>
				<port id="0" precision="FP32">
					<dim>-1</dim>
					<dim>616</dim>
					<dim>7</dim>
					<dim>7</dim>
				</port>
			</input>
			<output>
				<port id="1" precision="FP32" names="628">
					<dim>-1</dim>
					<dim>616</dim>
					<dim>7</dim>
					<dim>7</dim>
				</port>
			</output>
		</layer>
		<layer id="298" name="ConvBnFusion_W_up1.conv.conv.3.weight" type="Const" version="opset1">
			<data element_type="f32" shape="256, 616, 1, 1" offset="3708504" size="630784" />
			<output>
				<port id="0" precision="FP32" names="ConvBnFusion_W_up1.conv.conv.3.weight">
					<dim>256</dim>
					<dim>616</dim>
					<dim>1</dim>
					<dim>1</dim>
				</port>
			</output>
		</layer>
		<layer id="299" name="fused Conv_346/WithoutBiases" type="Convolution" version="opset1">
			<data strides="1, 1" dilations="1, 1" pads_begin="0, 0" pads_end="0, 0" auto_pad="explicit" />
			<input>
				<port id="0" precision="FP32">
					<dim>-1</dim>
					<dim>616</dim>
					<dim>7</dim>
					<dim>7</dim>
				</port>
				<port id="1" precision="FP32">
					<dim>256</dim>
					<dim>616</dim>
					<dim>1</dim>
					<dim>1</dim>
				</port>
			</input>
			<output>
				<port id="2" precision="FP32">
					<dim>-1</dim>
					<dim>256</dim>
					<dim>7</dim>
					<dim>7</dim>
				</port>
			</output>
		</layer>
		<layer id="300" name="Reshape_37050" type="Const" version="opset1">
			<data element_type="f32" shape="1, 256, 1, 1" offset="4339288" size="1024" />
			<output>
				<port id="0" precision="FP32">
					<dim>1</dim>
					<dim>256</dim>
					<dim>1</dim>
					<dim>1</dim>
				</port>
			</output>
		</layer>
		<layer id="301" name="Add_37051" type="Add" version="opset1">
			<data auto_broadcast="numpy" />
			<input>
				<port id="0" precision="FP32">
					<dim>-1</dim>
					<dim>256</dim>
					<dim>7</dim>
					<dim>7</dim>
				</port>
				<port id="1" precision="FP32">
					<dim>1</dim>
					<dim>256</dim>
					<dim>1</dim>
					<dim>1</dim>
				</port>
			</input>
			<output>
				<port id="2" precision="FP32">
					<dim>-1</dim>
					<dim>256</dim>
					<dim>7</dim>
					<dim>7</dim>
				</port>
			</output>
		</layer>
		<layer id="302" name="fused Conv_346" type="Clamp" version="opset1">
			<data min="0" max="6" />
			<input>
				<port id="0" precision="FP32">
					<dim>-1</dim>
					<dim>256</dim>
					<dim>7</dim>
					<dim>7</dim>
				</port>
			</input>
			<output>
				<port id="1" precision="FP32" names="633">
					<dim>-1</dim>
					<dim>256</dim>
					<dim>7</dim>
					<dim>7</dim>
				</port>
			</output>
		</layer>
		<layer id="303" name="Shape_352" type="ShapeOf" version="opset3">
			<data output_type="i64" />
			<input>
				<port id="0" precision="FP32">
					<dim>-1</dim>
					<dim>256</dim>
					<dim>7</dim>
					<dim>7</dim>
				</port>
			</input>
			<output>
				<port id="1" precision="I64" names="636">
					<dim>4</dim>
				</port>
			</output>
		</layer>
		<layer id="304" name="638" type="Const" version="opset1">
			<data element_type="i64" shape="1" offset="3683824" size="8" />
			<output>
				<port id="0" precision="I64" names="638">
					<dim>1</dim>
				</port>
			</output>
		</layer>
		<layer id="305" name="639" type="Const" version="opset1">
			<data element_type="i64" shape="1" offset="3683832" size="8" />
			<output>
				<port id="0" precision="I64" names="639">
					<dim>1</dim>
				</port>
			</output>
		</layer>
		<layer id="306" name="Broadcast_37056" type="Const" version="opset1">
			<data element_type="i64" shape="1" offset="3683840" size="8" />
			<output>
				<port id="0" precision="I64">
					<dim>1</dim>
				</port>
			</output>
		</layer>
		<layer id="307" name="637" type="Const" version="opset1">
			<data element_type="i64" shape="1" offset="3683824" size="8" />
			<output>
				<port id="0" precision="I64" names="637">
					<dim>1</dim>
				</port>
			</output>
		</layer>
		<layer id="308" name="Slice_356" type="Slice" version="opset8">
			<input>
				<port id="0" precision="I64">
					<dim>4</dim>
				</port>
				<port id="1" precision="I64">
					<dim>1</dim>
				</port>
				<port id="2" precision="I64">
					<dim>1</dim>
				</port>
				<port id="3" precision="I64">
					<dim>1</dim>
				</port>
				<port id="4" precision="I64">
					<dim>1</dim>
				</port>
			</input>
			<output>
				<port id="5" precision="I64" names="640">
					<dim>2</dim>
				</port>
			</output>
		</layer>
		<layer id="309" name="667" type="Const" version="opset1">
			<data element_type="i64" shape="2" offset="4340312" size="16" />
			<output>
				<port id="0" precision="I64" names="667">
					<dim>2</dim>
				</port>
			</output>
		</layer>
		<layer id="310" name="Concat_357" type="Concat" version="opset1">
			<data axis="0" />
			<input>
				<port id="0" precision="I64">
					<dim>2</dim>
				</port>
				<port id="1" precision="I64">
					<dim>2</dim>
				</port>
			</input>
			<output>
				<port id="2" precision="I64" names="642">
					<dim>4</dim>
				</port>
			</output>
		</layer>
		<layer id="311" name="Resize_359" type="Interpolate" version="opset11">
			<data mode="linear_onnx" shape_calculation_mode="sizes" coordinate_transformation_mode="align_corners" nearest_mode="floor" antialias="false" pads_begin="0, 0, 0, 0" pads_end="0, 0, 0, 0" cube_coeff="-0.75" />
			<input>
				<port id="0" precision="FP32">
					<dim>-1</dim>
					<dim>256</dim>
					<dim>7</dim>
					<dim>7</dim>
				</port>
				<port id="1" precision="I64">
					<dim>4</dim>
				</port>
			</input>
			<output>
				<port id="2" precision="FP32" names="644">
					<dim>-1</dim>
					<dim>256</dim>
					<dim>14</dim>
					<dim>14</dim>
				</port>
			</output>
		</layer>
		<layer id="312" name="Concat_360" type="Concat" version="opset1">
			<data axis="1" />
			<input>
				<port id="0" precision="FP32">
					<dim>-1</dim>
					<dim>24</dim>
					<dim>14</dim>
					<dim>14</dim>
				</port>
				<port id="1" precision="FP32">
					<dim>-1</dim>
					<dim>256</dim>
					<dim>14</dim>
					<dim>14</dim>
				</port>
			</input>
			<output>
				<port id="2" precision="FP32" names="645">
					<dim>-1</dim>
					<dim>280</dim>
					<dim>14</dim>
					<dim>14</dim>
				</port>
			</output>
		</layer>
		<layer id="313" name="Reshape_37073" type="Const" version="opset1">
			<data element_type="f32" shape="280, 1, 1, 3, 3" offset="4340328" size="10080" />
			<output>
				<port id="0" precision="FP32">
					<dim>280</dim>
					<dim>1</dim>
					<dim>1</dim>
					<dim>3</dim>
					<dim>3</dim>
				</port>
			</output>
		</layer>
		<layer id="314" name="fused Conv_361/WithoutBiases" type="GroupConvolution" version="opset1">
			<data strides="1, 1" pads_begin="1, 1" pads_end="1, 1" dilations="1, 1" auto_pad="explicit" />
			<input>
				<port id="0" precision="FP32">
					<dim>-1</dim>
					<dim>280</dim>
					<dim>14</dim>
					<dim>14</dim>
				</port>
				<port id="1" precision="FP32">
					<dim>280</dim>
					<dim>1</dim>
					<dim>1</dim>
					<dim>3</dim>
					<dim>3</dim>
				</port>
			</input>
			<output>
				<port id="2" precision="FP32">
					<dim>-1</dim>
					<dim>280</dim>
					<dim>14</dim>
					<dim>14</dim>
				</port>
			</output>
		</layer>
		<layer id="315" name="Reshape_37123" type="Const" version="opset1">
			<data element_type="f32" shape="1, 280, 1, 1" offset="4350408" size="1120" />
			<output>
				<port id="0" precision="FP32">
					<dim>1</dim>
					<dim>280</dim>
					<dim>1</dim>
					<dim>1</dim>
				</port>
			</output>
		</layer>
		<layer id="316" name="Add_37124" type="Add" version="opset1">
			<data auto_broadcast="numpy" />
			<input>
				<port id="0" precision="FP32">
					<dim>-1</dim>
					<dim>280</dim>
					<dim>14</dim>
					<dim>14</dim>
				</port>
				<port id="1" precision="FP32">
					<dim>1</dim>
					<dim>280</dim>
					<dim>1</dim>
					<dim>1</dim>
				</port>
			</input>
			<output>
				<port id="2" precision="FP32">
					<dim>-1</dim>
					<dim>280</dim>
					<dim>14</dim>
					<dim>14</dim>
				</port>
			</output>
		</layer>
		<layer id="317" name="fused Conv_361" type="Clamp" version="opset1">
			<data min="0" max="6" />
			<input>
				<port id="0" precision="FP32">
					<dim>-1</dim>
					<dim>280</dim>
					<dim>14</dim>
					<dim>14</dim>
				</port>
			</input>
			<output>
				<port id="1" precision="FP32" names="650">
					<dim>-1</dim>
					<dim>280</dim>
					<dim>14</dim>
					<dim>14</dim>
				</port>
			</output>
		</layer>
		<layer id="318" name="ConvBnFusion_W_up2.conv.conv.3.weight" type="Const" version="opset1">
			<data element_type="f32" shape="198, 280, 1, 1" offset="4351528" size="221760" />
			<output>
				<port id="0" precision="FP32" names="ConvBnFusion_W_up2.conv.conv.3.weight">
					<dim>198</dim>
					<dim>280</dim>
					<dim>1</dim>
					<dim>1</dim>
				</port>
			</output>
		</layer>
		<layer id="319" name="fused Conv_366/WithoutBiases" type="Convolution" version="opset1">
			<data strides="1, 1" dilations="1, 1" pads_begin="0, 0" pads_end="0, 0" auto_pad="explicit" />
			<input>
				<port id="0" precision="FP32">
					<dim>-1</dim>
					<dim>280</dim>
					<dim>14</dim>
					<dim>14</dim>
				</port>
				<port id="1" precision="FP32">
					<dim>198</dim>
					<dim>280</dim>
					<dim>1</dim>
					<dim>1</dim>
				</port>
			</input>
			<output>
				<port id="2" precision="FP32">
					<dim>-1</dim>
					<dim>198</dim>
					<dim>14</dim>
					<dim>14</dim>
				</port>
			</output>
		</layer>
		<layer id="320" name="Reshape_37137" type="Const" version="opset1">
			<data element_type="f32" shape="1, 198, 1, 1" offset="4573288" size="792" />
			<output>
				<port id="0" precision="FP32">
					<dim>1</dim>
					<dim>198</dim>
					<dim>1</dim>
					<dim>1</dim>
				</port>
			</output>
		</layer>
		<layer id="321" name="Add_37138" type="Add" version="opset1">
			<data auto_broadcast="numpy" />
			<input>
				<port id="0" precision="FP32">
					<dim>-1</dim>
					<dim>198</dim>
					<dim>14</dim>
					<dim>14</dim>
				</port>
				<port id="1" precision="FP32">
					<dim>1</dim>
					<dim>198</dim>
					<dim>1</dim>
					<dim>1</dim>
				</port>
			</input>
			<output>
				<port id="2" precision="FP32">
					<dim>-1</dim>
					<dim>198</dim>
					<dim>14</dim>
					<dim>14</dim>
				</port>
			</output>
		</layer>
		<layer id="322" name="fused Conv_366" type="Clamp" version="opset1">
			<data min="0" max="6" />
			<input>
				<port id="0" precision="FP32">
					<dim>-1</dim>
					<dim>198</dim>
					<dim>14</dim>
					<dim>14</dim>
				</port>
			</input>
			<output>
				<port id="1" precision="FP32" names="655">
					<dim>-1</dim>
					<dim>198</dim>
					<dim>14</dim>
					<dim>14</dim>
				</port>
			</output>
		</layer>
		<layer id="323" name="Reshape_37147" type="Const" version="opset1">
			<data element_type="f32" shape="198, 4, 1, 3, 3" offset="4574080" size="28512" />
			<output>
				<port id="0" precision="FP32">
					<dim>198</dim>
					<dim>4</dim>
					<dim>1</dim>
					<dim>3</dim>
					<dim>3</dim>
				</port>
			</output>
		</layer>
		<layer id="324" name="fused Conv_371/WithoutBiases" type="GroupConvolution" version="opset1">
			<data strides="1, 1" pads_begin="1, 1" pads_end="1, 1" dilations="1, 1" auto_pad="explicit" />
			<input>
				<port id="0" precision="FP32">
					<dim>-1</dim>
					<dim>198</dim>
					<dim>14</dim>
					<dim>14</dim>
				</port>
				<port id="1" precision="FP32">
					<dim>198</dim>
					<dim>4</dim>
					<dim>1</dim>
					<dim>3</dim>
					<dim>3</dim>
				</port>
			</input>
			<output>
				<port id="2" precision="FP32">
					<dim>-1</dim>
					<dim>792</dim>
					<dim>14</dim>
					<dim>14</dim>
				</port>
			</output>
		</layer>
		<layer id="325" name="Reshape_37197" type="Const" version="opset1">
			<data element_type="f32" shape="1, 792, 1, 1" offset="4602592" size="3168" />
			<output>
				<port id="0" precision="FP32">
					<dim>1</dim>
					<dim>792</dim>
					<dim>1</dim>
					<dim>1</dim>
				</port>
			</output>
		</layer>
		<layer id="326" name="Add_37198" type="Add" version="opset1">
			<data auto_broadcast="numpy" />
			<input>
				<port id="0" precision="FP32">
					<dim>-1</dim>
					<dim>792</dim>
					<dim>14</dim>
					<dim>14</dim>
				</port>
				<port id="1" precision="FP32">
					<dim>1</dim>
					<dim>792</dim>
					<dim>1</dim>
					<dim>1</dim>
				</port>
			</input>
			<output>
				<port id="2" precision="FP32">
					<dim>-1</dim>
					<dim>792</dim>
					<dim>14</dim>
					<dim>14</dim>
				</port>
			</output>
		</layer>
		<layer id="327" name="fused Conv_371" type="Clamp" version="opset1">
			<data min="0" max="6" />
			<input>
				<port id="0" precision="FP32">
					<dim>-1</dim>
					<dim>792</dim>
					<dim>14</dim>
					<dim>14</dim>
				</port>
			</input>
			<output>
				<port id="1" precision="FP32" names="660">
					<dim>-1</dim>
					<dim>792</dim>
					<dim>14</dim>
					<dim>14</dim>
				</port>
			</output>
		</layer>
		<layer id="328" name="Reshape_37207" type="Const" version="opset1">
			<data element_type="f32" shape="3, 66, 264, 1, 1" offset="4605760" size="209088" />
			<output>
				<port id="0" precision="FP32">
					<dim>3</dim>
					<dim>66</dim>
					<dim>264</dim>
					<dim>1</dim>
					<dim>1</dim>
				</port>
			</output>
		</layer>
		<layer id="329" name="fused Conv_376/WithoutBiases" type="GroupConvolution" version="opset1">
			<data strides="1, 1" pads_begin="0, 0" pads_end="0, 0" dilations="1, 1" auto_pad="explicit" />
			<input>
				<port id="0" precision="FP32">
					<dim>-1</dim>
					<dim>792</dim>
					<dim>14</dim>
					<dim>14</dim>
				</port>
				<port id="1" precision="FP32">
					<dim>3</dim>
					<dim>66</dim>
					<dim>264</dim>
					<dim>1</dim>
					<dim>1</dim>
				</port>
			</input>
			<output>
				<port id="2" precision="FP32">
					<dim>-1</dim>
					<dim>198</dim>
					<dim>14</dim>
					<dim>14</dim>
				</port>
			</output>
		</layer>
		<layer id="330" name="Reshape_37257" type="Const" version="opset1">
			<data element_type="f32" shape="1, 198, 1, 1" offset="4814848" size="792" />
			<output>
				<port id="0" precision="FP32">
					<dim>1</dim>
					<dim>198</dim>
					<dim>1</dim>
					<dim>1</dim>
				</port>
			</output>
		</layer>
		<layer id="331" name="Add_37258" type="Add" version="opset1">
			<data auto_broadcast="numpy" />
			<input>
				<port id="0" precision="FP32">
					<dim>-1</dim>
					<dim>198</dim>
					<dim>14</dim>
					<dim>14</dim>
				</port>
				<port id="1" precision="FP32">
					<dim>1</dim>
					<dim>198</dim>
					<dim>1</dim>
					<dim>1</dim>
				</port>
			</input>
			<output>
				<port id="2" precision="FP32">
					<dim>-1</dim>
					<dim>198</dim>
					<dim>14</dim>
					<dim>14</dim>
				</port>
			</output>
		</layer>
		<layer id="332" name="output" type="Clamp" version="opset1">
			<data min="0" max="6" />
			<input>
				<port id="0" precision="FP32">
					<dim>-1</dim>
					<dim>198</dim>
					<dim>14</dim>
					<dim>14</dim>
				</port>
			</input>
			<output>
				<port id="1" precision="FP32" names="output">
					<dim>-1</dim>
					<dim>198</dim>
					<dim>14</dim>
					<dim>14</dim>
				</port>
			</output>
		</layer>
		<layer id="333" name="output/sink_port_0" type="Result" version="opset1" output_names="output">
			<input>
				<port id="0" precision="FP32">
					<dim>-1</dim>
					<dim>198</dim>
					<dim>14</dim>
					<dim>14</dim>
				</port>
			</input>
		</layer>
	</layers>
	<edges>
		<edge from-layer="0" from-port="0" to-layer="2" to-port="0" />
		<edge from-layer="1" from-port="0" to-layer="2" to-port="1" />
		<edge from-layer="2" from-port="2" to-layer="4" to-port="0" />
		<edge from-layer="3" from-port="0" to-layer="4" to-port="1" />
		<edge from-layer="4" from-port="2" to-layer="5" to-port="0" />
		<edge from-layer="5" from-port="1" to-layer="7" to-port="0" />
		<edge from-layer="6" from-port="0" to-layer="7" to-port="1" />
		<edge from-layer="7" from-port="2" to-layer="9" to-port="0" />
		<edge from-layer="8" from-port="0" to-layer="9" to-port="1" />
		<edge from-layer="9" from-port="2" to-layer="10" to-port="0" />
		<edge from-layer="10" from-port="1" to-layer="12" to-port="0" />
		<edge from-layer="10" from-port="1" to-layer="23" to-port="0" />
		<edge from-layer="11" from-port="0" to-layer="12" to-port="1" />
		<edge from-layer="12" from-port="2" to-layer="14" to-port="0" />
		<edge from-layer="13" from-port="0" to-layer="14" to-port="1" />
		<edge from-layer="14" from-port="2" to-layer="16" to-port="0" />
		<edge from-layer="15" from-port="0" to-layer="16" to-port="1" />
		<edge from-layer="16" from-port="2" to-layer="17" to-port="0" />
		<edge from-layer="17" from-port="1" to-layer="19" to-port="0" />
		<edge from-layer="18" from-port="0" to-layer="19" to-port="1" />
		<edge from-layer="19" from-port="2" to-layer="21" to-port="0" />
		<edge from-layer="20" from-port="0" to-layer="21" to-port="1" />
		<edge from-layer="21" from-port="2" to-layer="22" to-port="0" />
		<edge from-layer="22" from-port="1" to-layer="23" to-port="1" />
		<edge from-layer="23" from-port="2" to-layer="25" to-port="0" />
		<edge from-layer="24" from-port="0" to-layer="25" to-port="1" />
		<edge from-layer="25" from-port="2" to-layer="27" to-port="0" />
		<edge from-layer="26" from-port="0" to-layer="27" to-port="1" />
		<edge from-layer="27" from-port="2" to-layer="29" to-port="0" />
		<edge from-layer="28" from-port="0" to-layer="29" to-port="1" />
		<edge from-layer="29" from-port="2" to-layer="31" to-port="0" />
		<edge from-layer="30" from-port="0" to-layer="31" to-port="1" />
		<edge from-layer="31" from-port="2" to-layer="32" to-port="0" />
		<edge from-layer="32" from-port="1" to-layer="34" to-port="0" />
		<edge from-layer="33" from-port="0" to-layer="34" to-port="1" />
		<edge from-layer="34" from-port="2" to-layer="36" to-port="0" />
		<edge from-layer="35" from-port="0" to-layer="36" to-port="1" />
		<edge from-layer="36" from-port="2" to-layer="37" to-port="0" />
		<edge from-layer="37" from-port="1" to-layer="39" to-port="0" />
		<edge from-layer="38" from-port="0" to-layer="39" to-port="1" />
		<edge from-layer="39" from-port="2" to-layer="41" to-port="0" />
		<edge from-layer="40" from-port="0" to-layer="41" to-port="1" />
		<edge from-layer="41" from-port="2" to-layer="43" to-port="0" />
		<edge from-layer="41" from-port="2" to-layer="56" to-port="1" />
		<edge from-layer="42" from-port="0" to-layer="43" to-port="1" />
		<edge from-layer="43" from-port="2" to-layer="45" to-port="0" />
		<edge from-layer="44" from-port="0" to-layer="45" to-port="1" />
		<edge from-layer="45" from-port="2" to-layer="46" to-port="0" />
		<edge from-layer="46" from-port="1" to-layer="48" to-port="0" />
		<edge from-layer="47" from-port="0" to-layer="48" to-port="1" />
		<edge from-layer="48" from-port="2" to-layer="50" to-port="0" />
		<edge from-layer="49" from-port="0" to-layer="50" to-port="1" />
		<edge from-layer="50" from-port="2" to-layer="51" to-port="0" />
		<edge from-layer="51" from-port="1" to-layer="53" to-port="0" />
		<edge from-layer="52" from-port="0" to-layer="53" to-port="1" />
		<edge from-layer="53" from-port="2" to-layer="55" to-port="0" />
		<edge from-layer="54" from-port="0" to-layer="55" to-port="1" />
		<edge from-layer="55" from-port="2" to-layer="56" to-port="0" />
		<edge from-layer="56" from-port="2" to-layer="58" to-port="0" />
		<edge from-layer="56" from-port="2" to-layer="312" to-port="0" />
		<edge from-layer="57" from-port="0" to-layer="58" to-port="1" />
		<edge from-layer="58" from-port="2" to-layer="60" to-port="0" />
		<edge from-layer="59" from-port="0" to-layer="60" to-port="1" />
		<edge from-layer="60" from-port="2" to-layer="61" to-port="0" />
		<edge from-layer="61" from-port="1" to-layer="63" to-port="0" />
		<edge from-layer="62" from-port="0" to-layer="63" to-port="1" />
		<edge from-layer="63" from-port="2" to-layer="65" to-port="0" />
		<edge from-layer="64" from-port="0" to-layer="65" to-port="1" />
		<edge from-layer="65" from-port="2" to-layer="66" to-port="0" />
		<edge from-layer="66" from-port="1" to-layer="68" to-port="0" />
		<edge from-layer="66" from-port="1" to-layer="79" to-port="0" />
		<edge from-layer="67" from-port="0" to-layer="68" to-port="1" />
		<edge from-layer="68" from-port="2" to-layer="70" to-port="0" />
		<edge from-layer="69" from-port="0" to-layer="70" to-port="1" />
		<edge from-layer="70" from-port="2" to-layer="72" to-port="0" />
		<edge from-layer="71" from-port="0" to-layer="72" to-port="1" />
		<edge from-layer="72" from-port="2" to-layer="73" to-port="0" />
		<edge from-layer="73" from-port="1" to-layer="75" to-port="0" />
		<edge from-layer="74" from-port="0" to-layer="75" to-port="1" />
		<edge from-layer="75" from-port="2" to-layer="77" to-port="0" />
		<edge from-layer="76" from-port="0" to-layer="77" to-port="1" />
		<edge from-layer="77" from-port="2" to-layer="78" to-port="0" />
		<edge from-layer="78" from-port="1" to-layer="79" to-port="1" />
		<edge from-layer="79" from-port="2" to-layer="81" to-port="0" />
		<edge from-layer="80" from-port="0" to-layer="81" to-port="1" />
		<edge from-layer="81" from-port="2" to-layer="83" to-port="0" />
		<edge from-layer="82" from-port="0" to-layer="83" to-port="1" />
		<edge from-layer="83" from-port="2" to-layer="85" to-port="0" />
		<edge from-layer="83" from-port="2" to-layer="111" to-port="1" />
		<edge from-layer="84" from-port="0" to-layer="85" to-port="1" />
		<edge from-layer="85" from-port="2" to-layer="87" to-port="0" />
		<edge from-layer="86" from-port="0" to-layer="87" to-port="1" />
		<edge from-layer="87" from-port="2" to-layer="88" to-port="0" />
		<edge from-layer="88" from-port="1" to-layer="90" to-port="0" />
		<edge from-layer="89" from-port="0" to-layer="90" to-port="1" />
		<edge from-layer="90" from-port="2" to-layer="92" to-port="0" />
		<edge from-layer="91" from-port="0" to-layer="92" to-port="1" />
		<edge from-layer="92" from-port="2" to-layer="93" to-port="0" />
		<edge from-layer="93" from-port="1" to-layer="106" to-port="0" />
		<edge from-layer="93" from-port="1" to-layer="95" to-port="0" />
		<edge from-layer="94" from-port="0" to-layer="95" to-port="1" />
		<edge from-layer="95" from-port="2" to-layer="97" to-port="0" />
		<edge from-layer="96" from-port="0" to-layer="97" to-port="1" />
		<edge from-layer="97" from-port="2" to-layer="99" to-port="0" />
		<edge from-layer="98" from-port="0" to-layer="99" to-port="1" />
		<edge from-layer="99" from-port="2" to-layer="100" to-port="0" />
		<edge from-layer="100" from-port="1" to-layer="102" to-port="0" />
		<edge from-layer="101" from-port="0" to-layer="102" to-port="1" />
		<edge from-layer="102" from-port="2" to-layer="104" to-port="0" />
		<edge from-layer="103" from-port="0" to-layer="104" to-port="1" />
		<edge from-layer="104" from-port="2" to-layer="105" to-port="0" />
		<edge from-layer="105" from-port="1" to-layer="106" to-port="1" />
		<edge from-layer="106" from-port="2" to-layer="108" to-port="0" />
		<edge from-layer="107" from-port="0" to-layer="108" to-port="1" />
		<edge from-layer="108" from-port="2" to-layer="110" to-port="0" />
		<edge from-layer="109" from-port="0" to-layer="110" to-port="1" />
		<edge from-layer="110" from-port="2" to-layer="111" to-port="0" />
		<edge from-layer="111" from-port="2" to-layer="139" to-port="1" />
		<edge from-layer="111" from-port="2" to-layer="113" to-port="0" />
		<edge from-layer="112" from-port="0" to-layer="113" to-port="1" />
		<edge from-layer="113" from-port="2" to-layer="115" to-port="0" />
		<edge from-layer="114" from-port="0" to-layer="115" to-port="1" />
		<edge from-layer="115" from-port="2" to-layer="116" to-port="0" />
		<edge from-layer="116" from-port="1" to-layer="118" to-port="0" />
		<edge from-layer="117" from-port="0" to-layer="118" to-port="1" />
		<edge from-layer="118" from-port="2" to-layer="120" to-port="0" />
		<edge from-layer="119" from-port="0" to-layer="120" to-port="1" />
		<edge from-layer="120" from-port="2" to-layer="121" to-port="0" />
		<edge from-layer="121" from-port="1" to-layer="123" to-port="0" />
		<edge from-layer="121" from-port="1" to-layer="134" to-port="0" />
		<edge from-layer="122" from-port="0" to-layer="123" to-port="1" />
		<edge from-layer="123" from-port="2" to-layer="125" to-port="0" />
		<edge from-layer="124" from-port="0" to-layer="125" to-port="1" />
		<edge from-layer="125" from-port="2" to-layer="127" to-port="0" />
		<edge from-layer="126" from-port="0" to-layer="127" to-port="1" />
		<edge from-layer="127" from-port="2" to-layer="128" to-port="0" />
		<edge from-layer="128" from-port="1" to-layer="130" to-port="0" />
		<edge from-layer="129" from-port="0" to-layer="130" to-port="1" />
		<edge from-layer="130" from-port="2" to-layer="132" to-port="0" />
		<edge from-layer="131" from-port="0" to-layer="132" to-port="1" />
		<edge from-layer="132" from-port="2" to-layer="133" to-port="0" />
		<edge from-layer="133" from-port="1" to-layer="134" to-port="1" />
		<edge from-layer="134" from-port="2" to-layer="136" to-port="0" />
		<edge from-layer="135" from-port="0" to-layer="136" to-port="1" />
		<edge from-layer="136" from-port="2" to-layer="138" to-port="0" />
		<edge from-layer="137" from-port="0" to-layer="138" to-port="1" />
		<edge from-layer="138" from-port="2" to-layer="139" to-port="0" />
		<edge from-layer="139" from-port="2" to-layer="141" to-port="0" />
		<edge from-layer="139" from-port="2" to-layer="292" to-port="0" />
		<edge from-layer="140" from-port="0" to-layer="141" to-port="1" />
		<edge from-layer="141" from-port="2" to-layer="143" to-port="0" />
		<edge from-layer="142" from-port="0" to-layer="143" to-port="1" />
		<edge from-layer="143" from-port="2" to-layer="144" to-port="0" />
		<edge from-layer="144" from-port="1" to-layer="146" to-port="0" />
		<edge from-layer="145" from-port="0" to-layer="146" to-port="1" />
		<edge from-layer="146" from-port="2" to-layer="148" to-port="0" />
		<edge from-layer="147" from-port="0" to-layer="148" to-port="1" />
		<edge from-layer="148" from-port="2" to-layer="149" to-port="0" />
		<edge from-layer="149" from-port="1" to-layer="151" to-port="0" />
		<edge from-layer="149" from-port="1" to-layer="162" to-port="0" />
		<edge from-layer="150" from-port="0" to-layer="151" to-port="1" />
		<edge from-layer="151" from-port="2" to-layer="153" to-port="0" />
		<edge from-layer="152" from-port="0" to-layer="153" to-port="1" />
		<edge from-layer="153" from-port="2" to-layer="155" to-port="0" />
		<edge from-layer="154" from-port="0" to-layer="155" to-port="1" />
		<edge from-layer="155" from-port="2" to-layer="156" to-port="0" />
		<edge from-layer="156" from-port="1" to-layer="158" to-port="0" />
		<edge from-layer="157" from-port="0" to-layer="158" to-port="1" />
		<edge from-layer="158" from-port="2" to-layer="160" to-port="0" />
		<edge from-layer="159" from-port="0" to-layer="160" to-port="1" />
		<edge from-layer="160" from-port="2" to-layer="161" to-port="0" />
		<edge from-layer="161" from-port="1" to-layer="162" to-port="1" />
		<edge from-layer="162" from-port="2" to-layer="164" to-port="0" />
		<edge from-layer="163" from-port="0" to-layer="164" to-port="1" />
		<edge from-layer="164" from-port="2" to-layer="166" to-port="0" />
		<edge from-layer="165" from-port="0" to-layer="166" to-port="1" />
		<edge from-layer="166" from-port="2" to-layer="168" to-port="0" />
		<edge from-layer="166" from-port="2" to-layer="194" to-port="1" />
		<edge from-layer="167" from-port="0" to-layer="168" to-port="1" />
		<edge from-layer="168" from-port="2" to-layer="170" to-port="0" />
		<edge from-layer="169" from-port="0" to-layer="170" to-port="1" />
		<edge from-layer="170" from-port="2" to-layer="171" to-port="0" />
		<edge from-layer="171" from-port="1" to-layer="173" to-port="0" />
		<edge from-layer="172" from-port="0" to-layer="173" to-port="1" />
		<edge from-layer="173" from-port="2" to-layer="175" to-port="0" />
		<edge from-layer="174" from-port="0" to-layer="175" to-port="1" />
		<edge from-layer="175" from-port="2" to-layer="176" to-port="0" />
		<edge from-layer="176" from-port="1" to-layer="178" to-port="0" />
		<edge from-layer="176" from-port="1" to-layer="189" to-port="0" />
		<edge from-layer="177" from-port="0" to-layer="178" to-port="1" />
		<edge from-layer="178" from-port="2" to-layer="180" to-port="0" />
		<edge from-layer="179" from-port="0" to-layer="180" to-port="1" />
		<edge from-layer="180" from-port="2" to-layer="182" to-port="0" />
		<edge from-layer="181" from-port="0" to-layer="182" to-port="1" />
		<edge from-layer="182" from-port="2" to-layer="183" to-port="0" />
		<edge from-layer="183" from-port="1" to-layer="185" to-port="0" />
		<edge from-layer="184" from-port="0" to-layer="185" to-port="1" />
		<edge from-layer="185" from-port="2" to-layer="187" to-port="0" />
		<edge from-layer="186" from-port="0" to-layer="187" to-port="1" />
		<edge from-layer="187" from-port="2" to-layer="188" to-port="0" />
		<edge from-layer="188" from-port="1" to-layer="189" to-port="1" />
		<edge from-layer="189" from-port="2" to-layer="191" to-port="0" />
		<edge from-layer="190" from-port="0" to-layer="191" to-port="1" />
		<edge from-layer="191" from-port="2" to-layer="193" to-port="0" />
		<edge from-layer="192" from-port="0" to-layer="193" to-port="1" />
		<edge from-layer="193" from-port="2" to-layer="194" to-port="0" />
		<edge from-layer="194" from-port="2" to-layer="196" to-port="0" />
		<edge from-layer="195" from-port="0" to-layer="196" to-port="1" />
		<edge from-layer="196" from-port="2" to-layer="198" to-port="0" />
		<edge from-layer="197" from-port="0" to-layer="198" to-port="1" />
		<edge from-layer="198" from-port="2" to-layer="199" to-port="0" />
		<edge from-layer="199" from-port="1" to-layer="201" to-port="0" />
		<edge from-layer="200" from-port="0" to-layer="201" to-port="1" />
		<edge from-layer="201" from-port="2" to-layer="203" to-port="0" />
		<edge from-layer="202" from-port="0" to-layer="203" to-port="1" />
		<edge from-layer="203" from-port="2" to-layer="204" to-port="0" />
		<edge from-layer="204" from-port="1" to-layer="206" to-port="0" />
		<edge from-layer="204" from-port="1" to-layer="217" to-port="0" />
		<edge from-layer="205" from-port="0" to-layer="206" to-port="1" />
		<edge from-layer="206" from-port="2" to-layer="208" to-port="0" />
		<edge from-layer="207" from-port="0" to-layer="208" to-port="1" />
		<edge from-layer="208" from-port="2" to-layer="210" to-port="0" />
		<edge from-layer="209" from-port="0" to-layer="210" to-port="1" />
		<edge from-layer="210" from-port="2" to-layer="211" to-port="0" />
		<edge from-layer="211" from-port="1" to-layer="213" to-port="0" />
		<edge from-layer="212" from-port="0" to-layer="213" to-port="1" />
		<edge from-layer="213" from-port="2" to-layer="215" to-port="0" />
		<edge from-layer="214" from-port="0" to-layer="215" to-port="1" />
		<edge from-layer="215" from-port="2" to-layer="216" to-port="0" />
		<edge from-layer="216" from-port="1" to-layer="217" to-port="1" />
		<edge from-layer="217" from-port="2" to-layer="219" to-port="0" />
		<edge from-layer="218" from-port="0" to-layer="219" to-port="1" />
		<edge from-layer="219" from-port="2" to-layer="221" to-port="0" />
		<edge from-layer="220" from-port="0" to-layer="221" to-port="1" />
		<edge from-layer="221" from-port="2" to-layer="223" to-port="0" />
		<edge from-layer="221" from-port="2" to-layer="249" to-port="1" />
		<edge from-layer="222" from-port="0" to-layer="223" to-port="1" />
		<edge from-layer="223" from-port="2" to-layer="225" to-port="0" />
		<edge from-layer="224" from-port="0" to-layer="225" to-port="1" />
		<edge from-layer="225" from-port="2" to-layer="226" to-port="0" />
		<edge from-layer="226" from-port="1" to-layer="228" to-port="0" />
		<edge from-layer="227" from-port="0" to-layer="228" to-port="1" />
		<edge from-layer="228" from-port="2" to-layer="230" to-port="0" />
		<edge from-layer="229" from-port="0" to-layer="230" to-port="1" />
		<edge from-layer="230" from-port="2" to-layer="231" to-port="0" />
		<edge from-layer="231" from-port="1" to-layer="233" to-port="0" />
		<edge from-layer="231" from-port="1" to-layer="244" to-port="0" />
		<edge from-layer="232" from-port="0" to-layer="233" to-port="1" />
		<edge from-layer="233" from-port="2" to-layer="235" to-port="0" />
		<edge from-layer="234" from-port="0" to-layer="235" to-port="1" />
		<edge from-layer="235" from-port="2" to-layer="237" to-port="0" />
		<edge from-layer="236" from-port="0" to-layer="237" to-port="1" />
		<edge from-layer="237" from-port="2" to-layer="238" to-port="0" />
		<edge from-layer="238" from-port="1" to-layer="240" to-port="0" />
		<edge from-layer="239" from-port="0" to-layer="240" to-port="1" />
		<edge from-layer="240" from-port="2" to-layer="242" to-port="0" />
		<edge from-layer="241" from-port="0" to-layer="242" to-port="1" />
		<edge from-layer="242" from-port="2" to-layer="243" to-port="0" />
		<edge from-layer="243" from-port="1" to-layer="244" to-port="1" />
		<edge from-layer="244" from-port="2" to-layer="246" to-port="0" />
		<edge from-layer="245" from-port="0" to-layer="246" to-port="1" />
		<edge from-layer="246" from-port="2" to-layer="248" to-port="0" />
		<edge from-layer="247" from-port="0" to-layer="248" to-port="1" />
		<edge from-layer="248" from-port="2" to-layer="249" to-port="0" />
		<edge from-layer="249" from-port="2" to-layer="251" to-port="0" />
		<edge from-layer="249" from-port="2" to-layer="277" to-port="1" />
		<edge from-layer="250" from-port="0" to-layer="251" to-port="1" />
		<edge from-layer="251" from-port="2" to-layer="253" to-port="0" />
		<edge from-layer="252" from-port="0" to-layer="253" to-port="1" />
		<edge from-layer="253" from-port="2" to-layer="254" to-port="0" />
		<edge from-layer="254" from-port="1" to-layer="256" to-port="0" />
		<edge from-layer="255" from-port="0" to-layer="256" to-port="1" />
		<edge from-layer="256" from-port="2" to-layer="258" to-port="0" />
		<edge from-layer="257" from-port="0" to-layer="258" to-port="1" />
		<edge from-layer="258" from-port="2" to-layer="259" to-port="0" />
		<edge from-layer="259" from-port="1" to-layer="261" to-port="0" />
		<edge from-layer="259" from-port="1" to-layer="272" to-port="0" />
		<edge from-layer="260" from-port="0" to-layer="261" to-port="1" />
		<edge from-layer="261" from-port="2" to-layer="263" to-port="0" />
		<edge from-layer="262" from-port="0" to-layer="263" to-port="1" />
		<edge from-layer="263" from-port="2" to-layer="265" to-port="0" />
		<edge from-layer="264" from-port="0" to-layer="265" to-port="1" />
		<edge from-layer="265" from-port="2" to-layer="266" to-port="0" />
		<edge from-layer="266" from-port="1" to-layer="268" to-port="0" />
		<edge from-layer="267" from-port="0" to-layer="268" to-port="1" />
		<edge from-layer="268" from-port="2" to-layer="270" to-port="0" />
		<edge from-layer="269" from-port="0" to-layer="270" to-port="1" />
		<edge from-layer="270" from-port="2" to-layer="271" to-port="0" />
		<edge from-layer="271" from-port="1" to-layer="272" to-port="1" />
		<edge from-layer="272" from-port="2" to-layer="274" to-port="0" />
		<edge from-layer="273" from-port="0" to-layer="274" to-port="1" />
		<edge from-layer="274" from-port="2" to-layer="276" to-port="0" />
		<edge from-layer="275" from-port="0" to-layer="276" to-port="1" />
		<edge from-layer="276" from-port="2" to-layer="277" to-port="0" />
		<edge from-layer="277" from-port="2" to-layer="279" to-port="0" />
		<edge from-layer="278" from-port="0" to-layer="279" to-port="1" />
		<edge from-layer="279" from-port="2" to-layer="281" to-port="0" />
		<edge from-layer="280" from-port="0" to-layer="281" to-port="1" />
		<edge from-layer="281" from-port="2" to-layer="282" to-port="0" />
		<edge from-layer="282" from-port="1" to-layer="283" to-port="0" />
		<edge from-layer="282" from-port="1" to-layer="291" to-port="0" />
		<edge from-layer="283" from-port="1" to-layer="288" to-port="0" />
		<edge from-layer="284" from-port="0" to-layer="288" to-port="1" />
		<edge from-layer="285" from-port="0" to-layer="288" to-port="2" />
		<edge from-layer="286" from-port="0" to-layer="288" to-port="3" />
		<edge from-layer="287" from-port="0" to-layer="288" to-port="4" />
		<edge from-layer="288" from-port="5" to-layer="290" to-port="0" />
		<edge from-layer="289" from-port="0" to-layer="290" to-port="1" />
		<edge from-layer="290" from-port="2" to-layer="291" to-port="1" />
		<edge from-layer="291" from-port="2" to-layer="292" to-port="1" />
		<edge from-layer="292" from-port="2" to-layer="294" to-port="0" />
		<edge from-layer="293" from-port="0" to-layer="294" to-port="1" />
		<edge from-layer="294" from-port="2" to-layer="296" to-port="0" />
		<edge from-layer="295" from-port="0" to-layer="296" to-port="1" />
		<edge from-layer="296" from-port="2" to-layer="297" to-port="0" />
		<edge from-layer="297" from-port="1" to-layer="299" to-port="0" />
		<edge from-layer="298" from-port="0" to-layer="299" to-port="1" />
		<edge from-layer="299" from-port="2" to-layer="301" to-port="0" />
		<edge from-layer="300" from-port="0" to-layer="301" to-port="1" />
		<edge from-layer="301" from-port="2" to-layer="302" to-port="0" />
		<edge from-layer="302" from-port="1" to-layer="303" to-port="0" />
		<edge from-layer="302" from-port="1" to-layer="311" to-port="0" />
		<edge from-layer="303" from-port="1" to-layer="308" to-port="0" />
		<edge from-layer="304" from-port="0" to-layer="308" to-port="1" />
		<edge from-layer="305" from-port="0" to-layer="308" to-port="2" />
		<edge from-layer="306" from-port="0" to-layer="308" to-port="3" />
		<edge from-layer="307" from-port="0" to-layer="308" to-port="4" />
		<edge from-layer="308" from-port="5" to-layer="310" to-port="0" />
		<edge from-layer="309" from-port="0" to-layer="310" to-port="1" />
		<edge from-layer="310" from-port="2" to-layer="311" to-port="1" />
		<edge from-layer="311" from-port="2" to-layer="312" to-port="1" />
		<edge from-layer="312" from-port="2" to-layer="314" to-port="0" />
		<edge from-layer="313" from-port="0" to-layer="314" to-port="1" />
		<edge from-layer="314" from-port="2" to-layer="316" to-port="0" />
		<edge from-layer="315" from-port="0" to-layer="316" to-port="1" />
		<edge from-layer="316" from-port="2" to-layer="317" to-port="0" />
		<edge from-layer="317" from-port="1" to-layer="319" to-port="0" />
		<edge from-layer="318" from-port="0" to-layer="319" to-port="1" />
		<edge from-layer="319" from-port="2" to-layer="321" to-port="0" />
		<edge from-layer="320" from-port="0" to-layer="321" to-port="1" />
		<edge from-layer="321" from-port="2" to-layer="322" to-port="0" />
		<edge from-layer="322" from-port="1" to-layer="324" to-port="0" />
		<edge from-layer="323" from-port="0" to-layer="324" to-port="1" />
		<edge from-layer="324" from-port="2" to-layer="326" to-port="0" />
		<edge from-layer="325" from-port="0" to-layer="326" to-port="1" />
		<edge from-layer="326" from-port="2" to-layer="327" to-port="0" />
		<edge from-layer="327" from-port="1" to-layer="329" to-port="0" />
		<edge from-layer="328" from-port="0" to-layer="329" to-port="1" />
		<edge from-layer="329" from-port="2" to-layer="331" to-port="0" />
		<edge from-layer="330" from-port="0" to-layer="331" to-port="1" />
		<edge from-layer="331" from-port="2" to-layer="332" to-port="0" />
		<edge from-layer="332" from-port="1" to-layer="333" to-port="0" />
	</edges>
	<rt_info>
		<MO_version value="2024.6.0-17404-4c0f47d2335-releases/2024/6" />
		<Runtime_version value="2025.3.0-19807-44526285f24-releases/2025/3" />
		<conversion_parameters>
			<input_model value="DIR/lm_modelU_opt.onnx" />
			<is_python_api_used value="True" />
		</conversion_parameters>
		<legacy_frontend value="False" />
	</rt_info>
</net>
